A3/one_minute_deepconvnet.pth (torch, 704116 bytes, 8 tensors)

W1 f4 [32, 3, 3, 3]
0.4127277 0.2525441 -0.13620509 0.4684479 -0.35288563 -0.52356225 -0.20789385 -0.019211221
-0.020879325 0.017321035 -0.05877324 -0.34565023 -0.050177522 0.13887438 -0.40007892 -0.39005935
-0.42355624 -0.017668664 -0.23543309 0.37369713 -0.035521735 0.06156312 0.27083966 0.15532555
0.38386878 -0.00847459 0.0052206675 -0.24770948 -0.044577543 -0.11696068 -0.08212215 0.046020992
-0.3630555 0.25483158 -0.09359332 0.07469493 0.58245903 0.5218397 0.056260798 -0.5440726
0.18186097 0.13701282 0.14488518 -0.15690713 0.056394774 0.5082389 0.44078657 -0.32424143
-0.33292338 -0.37838498 0.050974984 -0.28993985 -0.33724764 0.059303876 0.1872548 0.36872908
-0.31282875 -0.009297522 -0.09369467 0.06200181 -0.06300272 0.44338778 -0.25321925 -0.17860508
0.97478956 -0.24707392 0.10630223 -0.18369152 -0.24775346 -0.09706846 0.24578524 -0.6348739
0.3740322 0.26100487 0.31473202 -0.19616024 -0.3397741 0.12472505 0.07598401 -0.17696646
-0.5686031 -0.38641903 -0.48122627 0.13159601 0.0008945398 0.11953284 -0.28429317 -0.09319819
-0.06714408 0.1691913 0.34933522 0.1553417 -0.029100168 0.6456006 -0.3671673 0.2934006
0.4011681 -0.14831881 -0.4722484 0.094125114 0.41715154 0.86016995 0.025831508 -0.38279837
-0.35561898 -0.0023386118 -0.34854993 -0.08137731 0.44576323 0.3897417 0.41484138 -0.10509337
-0.44099697 0.067747705 -0.604276 -0.15114444 -0.09811138 -0.23142031 0.28955084 0.23057124
0.12174201 -0.120851345 0.53030276 -0.6687975 -0.0496278 0.25878 0.19007103 -0.33417895
0.06508045 0.101624265 -0.31680554 0.23233825 -0.087759346 -0.06763521 -0.20443493 0.28375763
-0.4569697 -0.19421223 -0.2511696 0.1297356 0.13342084 -0.27655664 -0.044827584 0.61880636
-0.22760947 -0.47572723 -0.091564454 0.3231433 0.30975705 -0.20276767 -0.18457203 0.186975
0.33667997 -0.064577654 -0.53465885 -0.24701078 0.20996034 0.034570042 -0.10163843 0.094711915
0.32214385 0.17633446 0.103701346 0.595798 -0.23771498 -0.32085595 -0.11640409 0.11941157
0.13415079 0.28945482 0.19634265 -0.4613079 -0.16625531 0.22809102 0.08232619 -0.30711338
0.018155245 -0.071081206 -0.028557355 0.57564855 -0.24499585 0.404691 -0.22277534 -0.017610341
-0.6218528 -0.03923465 -0.22067882 -0.17617291 0.026597057 0.07121228 0.28999537 -0.071059674
0.07256778 0.22424582 0.38365483 -0.16677608 -0.19353236 -0.1022711 0.24045397 -0.17558625
0.40262341 -0.5307264 0.22299388 0.4321191 0.28308657 -0.6503686 0.17208488 0.029598651
0.14922126 0.04922243 0.17438935 -0.1394149 0.18784507 -0.29234767 -0.55435544 -0.62994224
0.36387548 -0.1776014 -0.10639244 0.050031718 -0.09446891 -0.25902298 0.0048261643 -0.027350245
-0.54078305 0.18024153 0.18675219 -0.024377886 -0.5247627 0.18163551 -0.44274804 0.22038609
-0.047156163 0.022407075 0.21203475 0.21473426 -0.54732203 0.44553584 0.27416974 0.48535836
0.3864568 -0.13255055 -0.31908512 0.17754832 0.27809113 -0.048723273 0.19231978 -0.18502146
-0.060404234 -0.48143378 -0.23255861 -0.68834347 0.35745052 0.5522952 0.11109681 0.12893416
00000000: 0c51 d33e 764d 813e 5979 0bbe 67d8 ef3e
00000010: 6dad b4be 2d08 06bf 20e2 54be da60 9dbc
00000020: 1e0b abbc d8e4 8d3c 35bc 70bd 11f9 b0be
00000030: f286 4dbd 1635 0e3e 25d7 ccbe dcb5 c7be
00000040: 5ddc d8be e0bd 90bc 5f15 71be 3b55 bf3e
00000050: 3d7f 11bd 9c29 7c3d 7fab 8a3e a90d 1f3e
00000060: 738a c43e 02d9 0abc 2212 ab3b 8ea7 7dbe
00000070: f196 36bd 1589 efbd a82f a8bd 8280 3c3d
00000080: 69e2 b9be 4979 823e dbad bfbd a8f9 983d
00000090: 091c 153f 4997 053f b971 663d 5848 0bbf
000000a0: c339 3a3e 174d 0c3e c85c 143e 43ac 20be
000000b0: 35fe 663d f21b 023f c7ae e13e f902 a6be
000000c0: ef74 aabe adbb c1be 25cb 503d ff72 94be
000000d0: b9ab acbe 9fe8 723d b9bf 3f3e 0fca bc3e
000000e0: 172b a0be a254 18bc fee2 bfbd 9cf5 7d3d
000000f0: 9207 81bd b903 e33e f4a5 81be 40e4 36be
00000100: cf8b 793f f200 7dbe fcb4 d93d a119 3cbe
00000110: 15b3 7dbe d4cb c6bd 20af 7b3e 1987 22bf
00000120: 2681 bf3e 6ea2 853e 8e24 a13e 3bde 48be
00000130: dff6 adbe d96f ff3d 819d 9b3d b236 35be
00000140: f98f 11bf b7d8 c5be 4a63 f6be 1bc1 063e
00000150: 8d7f 6a3a a2cd f43d e08e 91be b1de bebd
00000160: d682 89bd 7c40 2d3e 11dc b23e e511 1f3e
00000170: 7a63 eebc 1546 253f 5afd bbbe 9a38 963e
00000180: e865 cd3e e3e0 17be 8bca f1be abc4 c03d
00000190: e394 d53e 1934 5c3f 999c d33c 26fe c3be
000001a0: b113 b6be 6543 19bb 2375 b2be 26a9 a6bd
000001b0: 143b e43e 398c c73e 1766 d43e 313b d7bd
000001c0: 5bca e1be 4fbf 8a3d d5b1 1abf 9cc5 1abe
000001d0: 9fee c8bd 72f9 6cbe 0240 943e de1a 6c3e
000001e0: e053 f93d e980 f7bd ecc1 073f 5036 2bbf
000001f0: 8546 4bbd d07e 843e fba1 423e 8119 abbe
00000200: e648 853d 6220 d03d 5634 a2be 14ea 6d3e
00000210: 2cbb b3bd 5484 8abd 6457 51be ae48 913e
00000220: eff7 e9be 92df 46be 4d99 80be 69d9 043e
00000230: 799f 083e d598 8dbe 219d 37bd 186a 1e3f
00000240: 7512 69be 8592 f3be 2586 bbbd 0a73 a53e
00000250: 7a98 9e3e 54a2 4fbe 7300 3dbe 6076 3f3e
00000260: 5161 ac3e 4a41 84bd 67df 08bf 65f0 7cbe
00000270: d8ff 563e 5199 0d3d cf27 d0bd 52f8 c13d
00000280: 0af0 a43e 0591 343e 5f61 d43d 3886 183f
00000290: 8e6b 73be 3b47 a4be 4465 eebd 0e8e f43d
000002a0: d35e 093e 6c33 943e 0c0e 493e 8d30 ecbe
000002b0: d53e 2abe b190 693e a29a a83d f73d 9dbe
000002c0: 4fba 943c 0693 91bd 1df1 e9bc b45d 133f
000002d0: 31e0 7abe a933 cf3e 381f 64be 9043 90bc
000002e0: bf31 1fbf 83b4 20bd a1f9 61be ac66 34be
000002f0: 12e2 d93c bed7 913d 467a 943e bc87 91bd
00000300: 6b9e 943d b2a0 653e 686e c43e 59c7 2abe
00000310: 592d 46be 8373 d1bd 9139 763e e2cc 33be
00000320: a824 ce3e afdd 07bf 8258 643e b73e dd3e
00000330: b9f0 903e 8e7e 26bf 0537 303e df78 f23c
00000340: 75cd 183e 759d 493d 1f93 323e c8c2 0ebe
00000350: 755a 403e 98ae 95be 3dea 0dbf e543 21bf
00000360: e34d ba3e 24dd 35be 48e4 d9bd 0fee 4c3d
00000370: ea78 c1bd a99e 84be cd24 9e3b 9f0d e0bc
00000380: c270 0abf 3c91 383e f73b 3f3e 22b4 c7bc
00000390: d956 06bf a9fe 393e dfaf e2be e4ac 613e
000003a0: d226 41bd 0b8f b73c a31f 593e 4ce3 5b3e
000003b0: 4c1d 0cbf 461d e43e fa5f 8c3e e480 f83e
000003c0: aadd c53e 55bb 07be 205f a3be 3acf 353e
000003d0: f661 8e3e 0e92 47bd 7aef 443e 4476 3dbe
000003e0: 6e6a 77bd 7d7e f6be d823 6ebe 4737 30bf
000003f0: c103 b73e 3863 0d3f b986 e33d 5107 043e

b1 f4 [32]
-0.03785332 0.04501888 0.013120773 -0.019505456 0.024281567 0.061806224 -0.012852802 0.09728505
0.06721615 0.059162296 0.11726184 0.0019687517 -0.012358731 0.041394435 0.058209896 0.02138661
0.020283097 0.14747658 0.14048126 -0.097745486 0.07386143 0.13618818 0.10601741 0.06672977
0.14614233 0.07663781 -0.02053552 0.15690061 0.006900588 0.12628692 0.027367167 0.072306104
00000000: 150c 1bbd b865 383d 83f8 563c e8c9 9fbc
00000010: 23ea c63c 8628 7d3d 8f94 52bc 623d c73d
00000020: 9fa8 893d 2a54 723d fa26 f03d 2c06 013b
00000030: 467c 4abc 368d 293d 806d 6e3d f932 af3c
00000040: bd28 a63c 1a04 173e 52da 0f3e c92e c8bd
00000050: a944 973d ea74 0b3e a81f d93d 9ea9 883d
00000060: 56a6 153e 49f4 9c3d 1b3a a8bc 8eaa 203e
00000070: 541e e23b 5c51 013e 1c31 e03c 3915 943d

W2 f4 [64, 32, 3, 3]
0.0011062757 -0.06688813 -0.047051143 -0.09031543 -0.07226333 -0.008374212 0.09811281 -0.010057218
0.053823385 0.115099624 0.033740517 0.064834654 0.18452954 -0.111220755 -0.18743835 0.0049588173
0.1705559 0.10671669 -0.10442661 -0.110452734 0.048824914 0.04646598 0.05869777 -0.18756028
0.08382813 0.07294838 0.02377612 -0.034301937 -0.05228046 0.08430534 -0.065542944 -0.053423155
-0.027582211 0.03547641 -0.065737516 -0.07277767 -0.04067598 -0.058739424 -0.052551996 -0.0023124805
-0.06247395 -0.066220805 -0.15532878 0.09253401 0.1469289 0.18632841 0.04250387 0.018687155
0.031185001 0.05294484 0.26133412 -0.2662748 -0.099511616 0.14890589 -0.008546082 0.10971555
-0.03666387 0.06248022 -0.1049173 -0.00784421 0.03071323 -0.034264054 -0.008640745 -0.18882863
-0.09646469 -0.058336213 0.17657712 0.2483651 -0.04076966 0.036999546 0.087499574 0.0430775
0.044213094 -0.03829102 0.017040385 0.03135429 0.09353706 0.035299186 0.075073406 0.1778047
-0.007517296 -0.10942218 -0.0668627 0.047647998 -0.11418741 -0.090585455 -0.03474536 -0.013531938
-0.022153681 0.07499852 0.19535556 0.039563976 -0.079558864 -0.012945416 0.15877376 0.10623452
0.066397816 -0.07276616 0.05938198 0.024225136 -0.07362756 -0.029013088 0.23214753 -0.023936028
-0.19856305 -0.053431332 0.064075895 0.164763 0.056857415 -0.05050328 0.024930136 -0.065819025
0.005554295 0.0559847 0.09025667 -0.055204235 0.010812758 -0.043167233 0.16273274 -0.05864136
-0.04300153 -0.08647107 -0.021482581 0.033392083 -0.05713259 -0.0640112 0.081103206 -0.060607236
-0.11142248 0.01240657 0.026341852 0.10231397 0.06670172 0.03515622 -0.13259964 -0.007549355
0.059816673 0.04837451 -0.21398957 0.034283873 -0.05195082 -0.01903875 -0.11907985 0.09149856
-0.19869189 0.07927205 0.023434741 0.08102192 0.04878819 0.02735523 0.011446933 0.018812723
0.10699191 0.12816194 0.07612087 -0.115771934 -0.26340926 0.06339228 0.18127929 0.075764015
-0.045048736 -0.11879835 0.013816147 0.04145062 0.14839144 -0.28240046 0.0911673 0.12457514
-0.12713754 -0.09276262 -0.23145966 -0.07043862 0.093740724 0.081341036 -0.0068581267 -0.038879637
-0.085847385 -0.14603049 0.08679094 0.057722025 0.097353905 0.00302413 -0.013073614 -0.091865115
0.0068426905 0.0066658114 0.04585295 0.13895215 0.04564345 0.07288503 0.15821287 0.16568129
-0.0030562642 -0.05668306 0.044924736 0.10467734 -0.09746003 -0.028874613 -0.25407135 -0.19814515
0.05551193 0.052474067 -0.17305529 0.14608552 0.13771255 0.049857274 -0.070935585 -0.07318166
-0.0065528313 -0.060406577 -0.0506269 -0.018055864 -0.020396505 -0.12567899 -0.07701301 -0.11130478
0.16215363 0.019488346 -0.0031076376 -0.13128924 -0.06376737 -0.014779025 -0.15871093 -0.20492716
-0.102835484 0.2517336 0.029400574 0.09843812 0.00012856178 0.070452906 -0.1415422 -0.13788156
-0.13008732 0.16805787 -0.0020428824 -0.14190459 -0.06987511 -0.029354813 -0.027336601 -0.0078081037
-0.029916564 0.025609571 -0.041776188 0.2317529 0.20015597 -0.16285028 -0.08189489 -0.12270941
-0.037129767 0.014030181 -0.05748733 0.10393245 -0.016030993 0.012520567 0.085979745 -0.060725633
00000000: 7400 913a a5fc 88bd b3b8 40bd 4cf7 b8bd
00000010: ccfe 93bd fe33 09bc 5eef c83d 08c7 24bc
00000020: e975 5c3d 5ab9 eb3d 7f33 0a3d 08c8 843d
00000030: 50f5 3c3e b5c7 e3bd d7ef 3fbe 937d a23b
00000040: 35a6 2e3e 488e da3d 9edd d5bd 0b35 e2bd
00000050: a2fc 473d 1d53 3e3d 136d 703d cd0f 40be
00000060: 15ae ab3d f665 953d 23c6 c23c 3080 0cbd
00000070: 0924 56bd 47a8 ac3d 613b 86bd 3dd2 5abd
00000080: 17f4 e1bc b64f 113d 64a1 86bd 760c 95bd
00000090: db9b 26bd c098 70bd c340 57bd fc8c 17bb
000000a0: afe4 7fbd c69e 87bd 820e 1fbe 7982 bd3d
000000b0: 8874 163e e0cc 3e3e 8a18 2e3d ce15 993c
000000c0: b077 ff3c b0dc 583d 96cd 853e 2c55 88be
000000d0: bfcc cbbd c97a 183e de04 0cbc 8cb2 e03d
000000e0: db2c 16bd 42eb 7f3d e2de d6bd 0085 00bc
000000f0: 509a fb3c 7758 0cbd e991 0dbc 4b5c 41be
00000100: 488f c5bd f4f1 6ebd a2d0 343e 6c53 7e3e
00000110: 16fe 26bd d68c 173d fa32 b33d 0872 303d
00000120: ca18 353d 0bd7 1cbd 4798 8b3c 5b6d 003d
00000130: 5c90 bf3d e195 103d 16c0 993d 6f12 363e
00000140: a653 f6bb bc18 e0bd 50ef 88bd 8c2a 433d
00000150: 17db e9bd de84 b9bd 2751 0ebd 10b5 5dbc
00000160: a37b b5bc d398 993d 4a0b 483e d60d 223d
00000170: c2ef a2bd 0319 54bc 9795 223e 7c91 d93d
00000180: 94fb 873d 6d06 95bd 853a 733d cb73 c63c
00000190: 0cca 96bd dbac edbc 15b8 6d3e 7d15 c4bc
000001a0: 1d54 4bbe d0da 5abd 393a 833d a2b7 283e
000001b0: 52e3 683d 87dc 4ebd 493a cc3c 20cc 86bd
000001c0: ce00 b63b 3650 653d 7dd8 b83d d61d 62bd
000001d0: fe27 313c 20d0 30bd 69a3 263e ec31 70bd
000001e0: 5f22 30bd bf17 b1bd 3dfc afbc 23c6 083d
000001f0: dd03 6abd 4e18 83bd 7019 a63d 4b3f 78bd
00000200: 7831 e4bd ed44 4b3c deca d73c fd89 d13d
00000210: e99a 883d f8ff 0f3d 33c8 07be 9460 f7bb
00000220: 5402 753d 5a24 463d 1520 5bbe 3f6d 0c3d
00000230: 62ca 54bd 27f7 9bbc 23e0 f3bd 9963 bb3d
00000240: e375 4bbe 6259 a23d 37fa bf3c d2ee a53d
00000250: 20d6 473d 1318 e03c eb8b 3b3c 241d 9a3c
00000260: 931e db3d e23c 033e 42e5 9b3d d619 edbd
00000270: 94dd 86be d0d3 813d 47a1 393e 2a2a 9b3d
00000280: 0685 38bd 8d4c f3bd 1f5d 623c 20c8 293d
00000290: edf3 173e cb96 90be ecb5 ba3d 4021 ff3d
000002a0: 5830 02be 54fa bdbd c303 6dbe 2042 90bd
000002b0: 23fb bf3d 2196 a63d 23ba e0bb 4140 1fbd
000002c0: c1d0 afbd 0489 15be 73bf b13d ee6d 6c3d
000002d0: 7c61 c73d 7b30 463b b632 56bc c723 bcbd
000002e0: a638 e03b e16c da3b 4ed0 3b3d 7949 0e3e
000002f0: a0f4 3a3d bf44 953d 8e02 223e 5ba8 293e
00000300: 9b4b 48bb 7f2c 68bd 0003 383d 1361 d63d
00000310: 2099 c7bd 748a ecbc a415 82be 90e6 4abe
00000320: 7a60 633d 0cef 563d 6835 31be 7197 153e
00000330: 8504 0d3e 2437 4c3d ad46 91bd 44e0 95bd
00000340: 22b9 d6bb e36c 77bd 275e 4fbd e4e9 93bc
00000350: 9216 a7bc feb1 00be ffb8 9dbd c3f3 e3bd
00000360: 9a0b 263e 06a6 9f3c 82a9 4bbb b070 06be
00000370: 7898 82bd b923 72bc 1e85 22be 6dd8 51be
00000380: 699b d2bd 3ae3 803e 79d9 f03c ed99 c93d
00000390: 8ace 0639 9d49 903d 70f0 10be d330 0dbe
000003a0: 9c35 05be 5d17 2c3e e1e1 05bb 704f 11be
000003b0: af1a 8fbd 8179 f0bc 02f1 dfbc 1fdb ffbb
000003c0: 9513 f5bc 2acb d13c 821d 2bbd a250 6d3e
000003d0: b0f5 4c3e 39c2 26be 82b8 a7bd 124f fbbd
000003e0: 6215 18bd d8de 653c d677 6bbd 89da d43d
000003f0: 6e53 83bc 1023 4d3c 2616 b03d 71bb 78bd

b2 f4 [64]
0.010114421 0.029414888 0.06899895 -0.048750915 -0.021332933 -0.056938995 0.09473835 -0.003251263
0.0040403074 0.01827491 -0.076988034 0.0392566 -0.086738005 0.081917666 -0.07604915 -0.017507995
0.023209127 0.0048252563 0.07428467 -0.01747591 0.021866329 -0.096356496 0.07748115 -0.018170247
0.034366 -0.048485257 -0.03363539 0.0145331 -0.0021955962 0.018652393 -0.042533197 0.033790614
-0.009438298 -0.08227137 0.053549793 -0.038696896 -0.03520983 -0.028642341 -0.0027749545 -0.020813297
-0.016891098 -0.086379655 -0.06617263 0.014716785 -0.009570096 -0.036639262 0.013524893 0.001432648
-0.05645829 -0.015218403 0.034232598 0.082475536 -0.028329974 0.018295186 0.046693407 0.115609966
0.05813688 0.021086475 -0.10824589 0.09661996 -0.09350511 0.06321559 -0.032382526 -0.08569379
00000000: f5b6 253c 7ef7 f03c 524f 8d3d 0aaf 47bd
00000010: 67c2 aebc dd38 69bd 2e06 c23d 2413 55bb
00000020: 8e64 843b 44b5 953c e7ab 9dbd 87cb 203d
00000030: b2a3 b1bd 73c4 a73d a8bf 9bbd ed6c 8fbc
00000040: 1121 be3c 2f1d 9e3b 9022 983d a429 8fbc
00000050: 0421 b33c 8e56 c5bd 70ae 9e3d c5d9 94bc
00000060: 5dc3 0c3d 7a98 46bd 43c5 09bd 3d1c 6e3c
00000070: fee3 0fbb e7cc 983c 4a37 2ebd 0768 0a3d
00000080: 17a3 1abc e47d a8bd 0757 5b3d a380 1ebd
00000090: 2f38 10bd 58a3 eabc 03dc 35bb a680 aabc
000000a0: 335f 8abc d1e7 b0bd 8485 87bd ac1e 713c
000000b0: e4cb 1cbc 0d13 16bd 8397 5d3c b1c7 bb3a
000000c0: cf40 67bd 9c56 79bc 7b37 0c3d efe8 a83d
000000d0: 4314 e8bc c9df 953c 9641 3f3d ebc4 ec3d
000000e0: f020 6e3d 8bbd ac3c 05b0 ddbd b0e0 c53d
000000f0: 9b7f bfbd 2d77 813d 8aa3 04bd 3a80 afbd

W3 f4 [128, 64, 3, 3]
-0.023989461 0.021596756 0.1538083 0.0006787071 -0.032302033 -0.13042347 0.14975783 -0.039891057
0.06233713 -0.107893676 -0.029564159 0.057723913 -0.051179137 0.091644496 -8.380225e-05 0.030386772
0.021635696 -0.010097771 0.029682627 0.13009116 -0.016727222 0.0035000045 -0.006754469 -0.039240237
-0.040941685 -0.04991152 -0.07918285 0.07587484 0.0819176 0.04683115 0.017570507 0.09746722
0.03597891 -0.06990365 -0.03362026 0.0025502688 0.14600384 0.06400833 0.14371298 0.011195389
-0.113204315 -0.066633046 -0.022341926 0.091486104 -0.093144864 -0.044440918 0.09880262 0.0662419
-0.1291269 -0.0349651 -0.13051896 -0.102758706 -0.0404215 -0.00859993 0.012221492 0.07045492
0.0009370696 -0.04862569 0.0113488985 -0.0104864985 -0.023808226 -0.040937778 -0.005269748 -0.0018975951
0.030869734 0.040904816 -0.0033995959 0.075238794 -0.05150187 -0.096524425 -0.034026965 -0.13119107
0.008438927 0.0344093 0.053938735 -0.035572756 -0.11540575 -0.05478418 -0.14906423 -0.21175614
-0.24923606 -0.031901304 0.059923436 -0.018009156 -0.074289784 -0.0075213765 -0.09173759 -0.0046763313
-0.0008270984 0.041404676 0.08404394 0.036228098 -0.0599324 -0.049791917 -0.005860249 -0.04575578
-0.10260348 -0.08069904 0.030479515 0.04896086 -0.10397583 0.05605314 -0.0044858023 -0.021363879
-0.10527763 0.041675624 0.04162729 0.1414965 0.053933218 -0.09302043 0.048421964 -0.011061407
0.031378325 0.08060751 -0.063940436 -0.17147619 -0.18362327 0.1908731 0.19009255 0.035713926
0.12476204 0.0822089 0.06608088 -0.031527396 0.019731255 -0.09249808 0.050788775 0.067804575
0.038749166 0.011165864 0.07395247 0.097763 -0.21243982 -0.24079338 -0.15081261 0.104269184
0.038395625 -0.007990338 -0.03298167 0.04433273 -0.029765572 -0.12490037 -0.18123467 -0.086735986
-0.035161253 0.04368884 0.014147297 -0.011477461 0.13408886 -0.015357609 -0.029582705 -0.05837355
-0.09324819 0.040885832 0.09586592 0.014463999 -0.11925325 -0.03035435 -0.009264157 0.0685475
0.04401062 -0.001620288 0.04117796 -0.11649456 0.029767836 0.16963135 -0.05468061 -0.0024601717
-0.06474426 -0.072205685 -0.017852465 0.016420405 0.08765769 -0.03655387 -0.014022376 0.039579924
0.03532962 -0.02514342 -0.011949239 0.023361897 0.10411081 0.019759165 -0.10904913 0.038788088
-0.08795247 -0.118374504 0.14450152 -0.12164263 -0.10036846 0.029017046 -0.059386868 -0.10095173
-0.018956428 -0.06456627 0.08201554 -0.059384253 -0.100121446 -0.06905657 0.12588991 -0.015894197
-0.091899425 0.020454861 -0.029343097 -0.01920672 -0.026705122 -0.079450235 -0.093558624 0.13463423
0.030344343 0.09673938 -0.004892271 -0.027427051 -0.0059470083 -0.10629212 -0.16532046 -0.1334284
0.065364785 0.010029855 -0.058347784 -0.022698393 -0.05661561 -0.07405949 0.01761917 -0.0998839
-0.1375864 -0.007880203 -0.014957072 -0.048497066 0.016288128 -0.09184883 -0.07827726 -0.07464804
-0.06577526 -0.0058959806 0.057950206 0.026549565 -0.034067433 0.0017886743 0.07862083 0.13974996
-0.006152011 0.07805039 0.041646782 -0.0074250856 -0.08776116 -0.13793363 0.04551853 -0.07209445
0.028346092 -0.028177183 0.0313347 -0.09616132 0.062043272 0.04041981 0.042477798 0.00704995
00000000: 8c85 c4bc aeeb b03c ec7f 1d3e 43eb 313a
00000010: 234f 04bd bb8d 05be 1e5a 193e ce64 23bd
00000020: 3855 7f3d 5cf7 dcbd 8930 f2bc e96f 6c3d
00000030: 37a1 51bd 1cb0 bb3d febe afb8 aeed f83c
00000040: 583d b13c 1f71 25bc fb28 f33c 9e36 053e
00000050: 8707 89bc 5560 653b 9854 ddbb 5fba 20bd
00000060: 78b2 27bd 0670 4cbd 9e2a a2bd 4564 9b3d
00000070: 6ac4 a73d 05d2 3f3d 06f0 8f3c e59c c73d
00000080: 9f5e 133d a529 8fbd 66b5 09bd 6922 273b
00000090: 0882 153e cd16 833d 7f29 133e dd6c 373c
000000a0: aad7 e7bd e876 88bd 6a06 b7bc 115d bb3d
000000b0: bcc2 bebd ae07 36bd 0759 ca3d d5a9 873d
000000c0: d839 04be 9137 0fbd c3a6 05be 2873 d2bd
000000d0: 0491 25bd b9e6 0cbc a73c 483c ab4a 903d
000000e0: ada5 753a bb2b 47bd bbf0 393c 90cf 2bbc
000000f0: 7809 c3bc 5fae 27bd daad acbb bab8 f8ba
00000100: 86e2 fc3c cf8b 273d c1cb 5ebb cc16 9a3d
00000110: a0f3 52bd 99ae c5bd dc5f 0bbd f456 06be
00000120: 6d43 0a3c c4f0 0c3d ddee 5c3d bdb4 11bd
00000130: da59 ecbd 6065 60bd 4ba4 18be 9ad6 58be
00000140: bd37 7fbe f1aa 02bd 4772 753d f087 93bc
00000150: 3e25 98bd e175 f6bb ebe0 bbbd e93b 99bb
00000160: a2d1 58ba f397 293d 3b1f ac3d ea63 143d
00000170: ad7b 75bd 9cf2 4bbd 5507 c0bb 6a6a 3bbd
00000180: c621 d2bd 8a45 a5bd 2db0 f93c 2f8b 483d
00000190: 48f1 d4bd fa97 653d a3fd 92bb 4d03 afbc
000001a0: cc9b d7bd 0fb4 2a3d 6181 2a3d 75e4 103e
000001b0: 14e9 5c3d 7f81 bebd 1c56 463d e73a 35bc
000001c0: 8f86 003d 8d15 a53d 34f3 82bd 7497 2fbe
000001d0: bd07 3cbe 3d74 433e 9fa7 423e c448 123d
000001e0: 3e83 ff3d 245d a83d 6a55 873d df22 01bd
000001f0: 71a3 a13c a26f bdbd e407 503d 20dd 8a3d
00000200: 72b7 1e3d 07f1 363c 6574 973d f837 c83d
00000210: d389 59be 8a92 76be 9f6e 1abe 158b d53d
00000220: bb44 1d3d e8e9 02bc ca17 07bd 3d96 353d
00000230: eed6 f3bc c4cb ffbd 9595 39be a3a2 b1bd
00000240: 3f05 10bd 12f3 323d 10ca 673c f60b 3cbc
00000250: 974e 093e 7b9e 7bbc 6e57 f2bc 1b19 6fbd
00000260: e8f8 bebd e777 273d 5a55 c43d 69fa 6c3c
00000270: 0c3b f4bd b0a9 f8bc b1c8 17bc a262 8c3d
00000280: 7b44 343d d85f d4ba 38aa 283d b394 eebd
00000290: addb f33c d7b3 2d3e c6f8 5fbd d53a 21bb
000002a0: a398 84bd 93e0 93bd 553f 92bc 1684 863c
000002b0: e085 b33d 83b9 15bd 1cbe 65bc 8f1e 223d
000002c0: cbb5 103d 93f9 cdbc bec6 43bc 7361 bf3c
000002d0: 0c38 d53d f9dd a13c 2655 dfbd 42e0 1e3d
000002e0: 6d20 b4bd 556e f2bd 35f8 133e c51f f9bd
000002f0: fb8d cdbd 28b5 ed3c a53f 73bd c8bf cebd
00000300: 834a 9bbc 523b 84bd c3f7 a73d e73c 73bd
00000310: 790c cdbd 886d 8dbd 49e9 003e 8c34 82bc
00000320: c435 bcbd f490 a73c ef60 f0bc 6957 9dbc
00000330: b3c4 dabc ceb6 a2bd aa9b bfbd 8edd 093e
00000340: b394 f83c 4c1f c63d 584f a0bb b2ae e0bc
00000350: 1fdf c2bb afaf d9bd c449 29be 74a1 08be
00000360: f9dd 853d 4354 243c 16fe 6ebd fbf1 b9bc
00000370: c5e5 67bd 80ac 97bd 1456 903c ee8f ccbd
00000380: 73e3 0cbe f81b 01bc 820e 75bc dca4 46bd
00000390: ae6e 853c 3d1b bcbd d44f a0bd 12e1 98bd
000003a0: 2eb5 86bd 1233 c1bb 325d 6d3d 797e d93c
000003b0: 4b8a 0bbd f371 ea3a f503 a13d 9d1a 0f3e
000003c0: cf96 c9bb e2d8 9f3d d195 2a3d 224e f3bb
000003d0: 20bc b3bd 793e 0dbe a371 3a3d 41a6 93bd
000003e0: 1036 e83c d6d3 e6bc d058 003d 3af0 c4bd
000003f0: 1621 7e3d 3e8f 253d 33fd 2d3d 4403 e73b

b3 f4 [128]
-0.05084551 -0.028584052 0.041672695 0.013310524 -0.035422303 0.02781575 -0.07802849 -0.07071221
-0.04564091 -0.028356686 0.034647405 -0.009595791 0.06796139 -0.0028073604 -0.049210474 0.04600022
-0.04474184 0.03300406 0.052138288 -0.014767811 0.038159873 -0.069414765 0.12886442 0.04514478
-0.002911014 0.068555295 0.0074338405 0.03071992 0.01259335 -0.026864883 -0.0017460624 -0.09471653
0.07466712 0.04830176 0.0014502647 0.044952888 -0.023117648 -0.018623654 0.026877662 -0.081441775
0.086160116 -0.029157076 -0.050567657 0.035587993 0.088797554 -0.0044762115 0.015809271 -0.023994124
-0.049128648 0.030982748 0.10557533 0.07444339 0.013782898 -0.080413364 0.05569593 0.081899114
0.05637822 -0.0073337588 0.066346996 -0.00093031005 0.109362386 0.08952092 -0.042257473 -0.013055825
0.042442743 -0.08333287 -0.090438195 0.026994158 -0.037807066 0.036982805 -0.06068454 -0.060681622
-0.005555664 -0.027802702 -2.2350934e-05 0.0034477597 0.047488242 -0.004597608 0.041059867 -0.011092417
-0.08401854 -0.027485352 -0.085102096 0.036845192 -0.023459341 -0.10462028 0.013482684 0.014981471
-0.003981706 0.057590835 -0.0052013383 0.026927937 -0.008970336 -0.03196954 0.10204068 0.022297746
-0.072480105 -0.067386374 0.06466641 -0.011621219 0.03520323 -0.017137205 0.08259335 -0.063505776
0.055833224 0.013325967 0.008133107 0.050803956 0.06712872 -0.08166517 -0.01564315 -0.052953076
0.025643528 0.0019246003 -0.016383583 0.20603226 0.051708046 0.04929779 0.051364385 -0.032999564
0.009331791 -0.03627071 -0.02891924 0.0056654727 0.028301446 0.016326727 0.0011249925 0.01728024
00000000: 6243 50bd 1a29 eabc fdb0 2a3d 6214 5a3c
00000010: fa16 11bd dbdd e33c 67cd 9fbd 90d1 90bd
00000020: f6f1 3abd 484c e8bc 70ea 0d3d aa37 1dbc
00000030: 572f 8b3d b1fb 37bb ec90 49bd ba6a 3c3d
00000040: 3843 37bd 442f 073d f58e 553d b0f4 71bc
00000050: 874d 1c3d 5429 8ebd 09f5 033e bce9 383d
00000060: b6c6 3ebb b866 8c3d 9397 f33b 57a8 fb3c
00000070: 5754 4e3c be13 dcbc 22dc e4ba bdfa c1bd
00000080: 13eb 983d 11d8 453d cf16 be3a 8520 383d
00000090: 3961 bdbc a290 98bc 8b2e dc3c f2ca a6bd
000000a0: b774 b03d d2da eebc 0820 4fbd b7c4 113d
000000b0: 7edb b53d 2fad 92bb 7282 813c 538f c4bc
000000c0: 1f3b 49bd 88cf fd3c e137 d83d c775 983d
000000d0: aad1 613c c3af a4bd 6a21 643d b9ba a73d
000000e0: d9ec 663d 0750 f0bb efe0 873d 0de0 73ba
000000f0: 63f9 df3d be56 b73d 2c16 2dbd 19e8 55bc
00000100: 71d8 2d3d 6caa aabd a937 b9bd da22 dd3c
00000110: 95db 1abd 487b 173d 5a90 78bd 4b8d 78bd
00000120: 4a0c b6bb 7ec2 e3bc 447e bbb7 cff3 613b
00000130: 0883 423d 88a7 96bb 642e 283d f8bc 35bc
00000140: ea11 acbd f628 e1bc 024a aebd fcea 163d
00000150: ce2d c0bc 2843 d6bd 7ae6 5c3c d874 753c
00000160: f978 82bb 5ee4 6b3d fd6f aabb fa97 dc3c
00000170: 51f8 12bc 7ef2 02bd b4fa d03d c3a9 b63c
00000180: 7370 94bd de01 8abd d36f 843d ed66 3ebc
00000190: 4331 103d 5363 8cbc b426 a93d 510f 82bd
000001a0: 61b1 643d 2855 5a3c b940 053c cf17 503d
000001b0: c87a 893d 1240 a7bd 1026 80bc 53e5 58bd
000001c0: 6012 d23c df42 fc3a dd36 86bc 1ffa 523e
000001d0: d1cb 533d 7bec 493d 7663 523d 8d2a 07bd
000001e0: 5ee4 183c 9990 14bd 0be8 ecbc 6ea5 b93b
000001f0: 6fd8 e73c a1bf 853c 7c74 933a 4a8f 8d3c

W4 f4 [8192, 10]
-0.0034543104 -0.0026068755 0.008890379 0.04123375 -0.0140428655 -0.03847595 -0.034796953 0.030303359
0.103867546 0.019694278 0.032645155 -0.05873699 -0.023277612 -0.05803711 0.061574414 -0.007428487
0.030942783 0.017712206 0.020763308 0.01542766 0.06827155 -0.00049028377 -0.031973023 -0.013515729
0.01198021 -0.0041066636 0.008011221 -0.029593963 -0.034319777 -0.0023850272 -0.02605171 0.029670082
0.03322442 -0.03047213 0.035304934 0.021367285 -0.01362187 -0.06633156 -0.045523647 -0.019453298
-0.018409183 -0.022278722 0.00729613 -0.020338776 0.02377808 -0.0065482603 0.028209431 0.02033553
0.030072017 -0.03425408 0.060882825 0.040762752 0.03452214 -0.023290489 -0.025280258 0.0030166737
-0.0020182298 0.0050048563 0.0017415852 -0.025906868 0.014135178 0.024901431 -0.10119109 0.027886592
0.073530845 0.07770141 -0.02121587 -0.008483949 -0.020029249 -0.025765477 0.018372608 -0.045795184
-0.027611127 -0.051427092 -0.0367073 0.07758015 0.028944211 0.0041915635 -0.017414065 0.0145937735
0.11666546 0.0050496436 -0.04657465 0.118204586 -0.017491255 -0.011673716 -0.054305326 -0.08152956
0.021796208 -0.049700182 0.03366101 0.012113813 -0.0030627265 -0.049149003 -0.01319913 0.036429666
0.006783262 -0.0163336 0.023248158 -0.015556242 0.027370185 0.012731323 0.03970185 -0.0549614
-0.0074353106 0.053029425 0.011111851 0.027273782 -0.03705426 -0.046067994 0.02937189 0.0045466903
-0.0094756605 -0.012506457 -0.06968348 0.02640019 0.028386679 -0.005737512 0.086573154 -0.007125259
0.069769956 0.006021629 -0.020022394 -0.08487825 -0.0040810956 0.07538187 0.015934074 0.009380002
-0.02373343 -0.040932413 0.052998755 0.03895724 0.033986133 -0.049778435 -0.08413152 0.051328093
-0.029602312 0.023957394 -0.059749775 -0.011211794 -0.017003875 0.048907686 -0.04969541 -0.056405965
0.030151833 0.028680997 0.027968397 -0.032469824 -0.0009360981 -0.012828772 0.01733714 0.059505597
0.00038506382 0.007901177 -0.063209206 0.052214053 -0.029380942 -0.012279822 0.035772663 -0.020060217
0.0389939 0.0140995905 -0.029592764 -0.0050293673 0.054713175 0.030130137 -0.033965573 -0.0117750075
-0.028537367 -0.07993114 -0.03520902 -0.009005818 -0.03229057 -0.15094262 -0.017455563 0.14311688
0.0010471696 0.019471288 0.06706922 0.015784578 -0.007504945 0.04781038 0.05165451 -0.045510042
-0.02139924 -0.0065460657 0.015098886 -0.03727303 0.019911546 -0.06409285 0.0013682914 0.05127737
-0.026205612 -0.038658354 -0.05256175 0.015334793 -0.01815234 -0.07396688 0.016713107 0.030908516
0.035360426 0.04626829 0.019501187 -0.0533184 -0.006209644 0.024161426 -0.05027643 -0.067571566
0.05196899 -0.0029184772 0.005042726 0.10803616 0.009498302 -0.057272997 0.019288797 0.017027585
-0.032416392 -0.034704164 -0.04394675 0.01694716 0.023759985 0.014876627 -0.0076576136 -0.018006647
0.022219885 -0.029315589 -0.005388251 0.018917346 -0.012094538 0.0055134953 -0.052745078 0.06649963
-0.07439313 -0.055612393 0.006765234 0.04814918 -0.051617417 0.068363644 0.10161295 0.00161138
-0.10432276 -0.025066974 0.019479346 -0.0035131618 -0.09682688 0.024760114 0.0206746 0.09601733
0.1110924 0.0034381675 -0.026362421 0.01663035 -0.032643907 -0.04024198 0.026928868 0.02734103
00000000: b661 62bb 1dd8 2abb f4a8 113c b8e4 283d
00000010: 0c14 66bc f598 1dbd 4087 0ebd c03e f83c
00000020: 82b8 d43d e555 a13c edb6 053d 3396 70bd
00000030: b1b0 bebc 52b8 6dbd 7435 7c3d aa6a f3bb
00000040: b87b fd3c 3019 913c d017 aa3c 4cc4 7c3c
00000050: f4d1 8b3d 6386 00ba 25f6 02bd 1471 5dbc
00000060: a548 443c 3191 86bb 7f41 033c 0a6f f2bc
00000070: e592 0cbd 1e4e 1cbb 656a d5bc ac0e f33c
00000080: 5416 083d b0a0 f9bc e89b 103d 720a af3c
00000090: 442e 5fbc d7d8 87bd 0177 3abd 865c 9fbc
000000a0: dbce 96bc de81 b6bc 6014 ef3b 819d a6bc
000000b0: 3fca c23c ca92 d6bb 7717 e73c b396 a63c
000000c0: 9759 f63c 024e 0cbd 4560 793d d8f6 263d
000000d0: 1667 0d3d b2cb bebc 8b18 cfbc 63b3 453b
000000e0: 4744 04bb c7ff a33b e745 e43a a43a d4bc
000000f0: 3c97 673c 16fe cb3c 463d cfbd 6c72 e43c
00000100: 5797 963d eb21 9f3d e7cc adbc 4300 0bbc
00000110: 6114 a4bc 1f12 d3bc 2782 963c bb93 3bbd
00000120: bb30 e2bc 37a5 52bd 655a 16bd 57e2 9e3d
00000130: 691c ed3c 6259 893b f1a7 8ebc b91a 6f3c
00000140: 4dee ee3d 7b77 a53b 0fc5 3ebd 3f15 f23d
00000150: d249 8fbc 1d43 3fbc 436f 5ebd f8f8 a6bd
00000160: f68d b23c 6b92 4bbd 21e0 093d 0479 463c
00000170: 06b8 48bb 7750 49bd 2a41 58bc 4637 153d
00000180: 2046 de3b 0bce 85bc ec72 be3c 9cdf 7ebc
00000190: 7037 e03c 0a97 503c 689e 223d 341f 61bd
000001a0: e8a3 f3bb 6235 593d 7b0e 363c 446d df3c
000001b0: 35c6 17bd cbb1 3cbd 519d f03c 67fc 943b
000001c0: cd3f 1bbc e2e7 4cbc 36b6 8ebd 3645 d83c
000001d0: 2e8b e83c bd01 bcbb 444d b13d 017b e9bb
000001e0: 8de3 8e3d 1651 c53b 0106 a4bc a6d4 adbd
000001f0: b6ba 85bb cf61 9a3d 2d88 823c 94ae 193c
00000200: 9c6c c2bc bfa8 27bd 3915 593d a091 1f3d
00000210: 0b35 0b3d 79e4 4bbd 254d acbd 683d 523d
00000220: 8c80 f2bc 4c42 c43c 2ebc 74bd acb1 37bc
00000230: b64b 8bbc 6d53 483d 6a8d 4bbd f109 67bd
00000240: fa00 f73c 69f4 ea3c fb1d e53c 14ff 04bd
00000250: 7b64 75ba c52f 52bc 9e06 8e3c 24bc 733d
00000260: 64e2 c939 f073 013c d473 81bd 67de 553d
00000270: 4db0 f0bc 4e31 49bc 5b86 123d 5355 a4bc
00000280: 11b8 1f3d f801 673c 866c f2bc 64cd a4bb
00000290: ec1a 603d 7ad3 f63c 7c1f 0bbd f6eb 40bc
000002a0: 32c7 e9bc f0b2 a3bd 5537 10bd 238d 13bc
000002b0: 1e43 04bd b490 1abe f8fe 8ebc 3b8d 123e
000002c0: 2e41 893a 4082 9f3c 965b 893d a94e 813c
000002d0: 0bec f5bb d1d4 433d ae93 533d bd68 3abd
000002e0: 754d afbc 6180 d6bb 5161 773c 9bab 18bd
000002f0: 8a1d a33c 1d43 83bd 3e58 b33a 3808 523d
00000300: 27ad d6bc 3958 1ebd fd4a 57bd c93e 7b3c
00000310: 37b4 94bc f37b 97bd ede9 883c db33 fd3c
00000320: 18d6 103d d283 3d3d f4c0 9f3c 6564 5abd
00000330: 457a cbbb 2fee c53c a8ee 4dbd f662 8abd
00000340: 70dd 543d ec43 3fbb 743d a53b 1042 dd3d
00000350: c49e 1b3c 1797 6abd 8a03 9e3c 6f7d 8b3c
00000360: 0dc7 04bd f425 0ebd 8201 34bd c5d4 8a3c
00000370: 4da4 c23c 19bd 733c b8ec fabb ad82 93bc
00000380: 7a06 b63c 3f27 f0bc ed8f b0bb 8df8 9a3c
00000390: 2b28 46bc 8daa b43b 390b 58bd f530 883d
000003a0: 6d5b 98bd d2c9 63bd e5ae dd3b 1338 453d
000003b0: c96c 53bd 3d02 8c3d 731a d03d f134 d33a
000003c0: 2ca7 d5bd 4159 cdbc 2693 9f3c 133d 66bb
000003d0: 2c4d c6bd b9d5 ca3c c75d a93c bca4 c43d
000003e0: 6a84 e33d e152 613b 01f6 d7bc 5f3c 883c
000003f0: 9eb5 05bd c6d4 24bd ee99 dc3c 4cfa df3c

b4 f4 [10]
-0.025348777 -0.063386366 0.0009236021 0.03077019 0.07927201 -0.022823837 0.004145187 -0.029805398
0.058119535 -0.017184917
00000000: 3da8 cfbc b6d0 81bd e31d 723a c411 fc3c
00000010: 5d59 a23d 0ef9 babc 59d4 873b 732a f4bc
00000020: c00e 6e3d 62c7 8cbc
