A3/overfit_deepconvnet.pth (torch, 112160 bytes, 10 tensors)

W1 f4 [8, 3, 3, 3]
0	0xbe574967	-0.21024095
1	0xbe154898	-0.14578474
2	0xbf26542d	-0.6497219
3	0x3d3e3786	0.04643967
4	0xbd0ec7eb	-0.034858625
5	0xbe1b5ddb	-0.15172522
6	0xbc559f76	-0.013038507
7	0x3c499ba9	0.012305179
8	0xbe2296fa	-0.15877905
9	0xbdd2aee3	-0.10287263
10	0xbec7dfd1	-0.39037946
11	0x3eaa5af0	0.33272505
12	0x3d852369	0.065008946
13	0xbd347521	-0.044057015
14	0x3e703799	0.23458709
15	0x3eb084c5	0.34476295
16	0x3d86ad1e	0.06575988
17	0x3eaa9584	0.33317196
18	0x3e783629	0.2423941
19	0x3e1071e1	0.14105941
20	0xbe5dbda7	-0.21654378
21	0xbe8e41eb	-0.27784666
22	0xbe0e58a9	-0.13901009
23	0xbe7e9bd2	-0.24864128
24	0x3e12ac91	0.14323641
25	0x3e01ac6c	0.1266343
26	0x3f071fa6	0.52782667
27	0x3e886001	0.26635745
28	0x3dc80379	0.09766287
29	0xbd666ab0	-0.05625409
30	0x3eb2582a	0.3483289
31	0x377f0252	1.5199725e-05
32	0xbdbb51a2	-0.091464296
33	0xbc819ae7	-0.015820934
34	0xbe41884e	-0.18899652
35	0xbe0a8dd2	-0.13530663
36	0xbc475cff	-0.012168168
37	0x3e03bce8	0.12865031
38	0x3e6c3385	0.23066528
39	0x3ebfe27b	0.37477478
40	0x3d47879a	0.048713304
41	0x3e033cbd	0.12816139
42	0x3ebcda81	0.36885455
43	0x3ddf63f6	0.10907738
44	0xbd7a0099	-0.061035726
45	0x3e6a7de3	0.22899584
46	0xbe8a59b5	-0.27021566
47	0xbe032686	-0.12807664
48	0xbd50794c	-0.050896928
49	0xbc1c1124	-0.009525571
50	0x3b12bb3c	0.0022389432
51	0xbd60c75e	-0.05487763
52	0x3cd535a8	0.026026562
53	0xbec71c9e	-0.3888902
54	0x3de57729	0.112043686
55	0x3e3c95ea	0.18416563
56	0xbb98d58d	-0.004664129
57	0xbcda92dd	-0.026681358
58	0xbd8ca1c7	-0.06866794
59	0x3e97bfa2	0.29638392
60	0x3e17fba1	0.14842083
61	0x3dd3cc07	0.103416495
62	0x3e55ad1c	0.20866817
63	0xbe32e720	-0.1747098
64	0x3d147c30	0.036251247
65	0xbe095360	-0.13410711
66	0x3e3df7d4	0.1855157
67	0xbe6f5b50	-0.23374677
68	0xbe0bf8cd	-0.13669129
69	0x3d5c4b85	0.05378296
70	0x3e22a907	0.15884791
71	0xbcadc2f9	-0.021211134
72	0xbdbcb824	-0.092148095
73	0xbd61742c	-0.05504243
74	0x3e5e140f	0.21687339
75	0xbe9d37d9	-0.3070667
76	0x3dbe9072	0.093048945
77	0x3d9c8148	0.07641846
78	0x3dc84119	0.097780414
79	0xbd9567df	-0.072952025
80	0x3c8ee426	0.017442774
81	0x3df9aece	0.121915445
82	0xbf1af03d	-0.60522825
83	0x3d941150	0.072298646
84	0xbd2f62f7	-0.04281899
85	0x3e93af79	0.28844813
86	0xbcdc5f18	-0.026900813
87	0x3d4c880b	0.04993443
88	0x3ddee45f	0.10883402
89	0xbd182254	-0.037142113
90	0x3e23ac3e	0.15983674
91	0x3ebc01b5	0.36720052
92	0x3d67077d	0.056403626
93	0x3da23871	0.079209216
94	0x3e88ca22	0.26716715
95	0xbe46c9e9	-0.1941296
96	0x3d0f28c2	0.03495098
97	0xbe5c3fbb	-0.21508686
98	0xbe1d11c9	-0.15338816
99	0xbe01a259	-0.12659587
100	0x3d6f24ee	0.05838483
101	0x3d6e8b35	0.058238227
102	0x3db91af0	0.09038341
103	0x3e6e9077	0.23297296
104	0xbe98b3f1	-0.29824784
105	0x3e1bbd7a	0.15208998
106	0x3e7c3216	0.24628481
107	0xbdfb442f	-0.12268864
108	0x3d6ee0ef	0.058319982
109	0xbe1fa707	-0.1559106
110	0xbecf7775	-0.40520826
111	0xbdd04e31	-0.10171164
112	0x3e9defe5	0.30847088
113	0x3d8b61ba	0.06805749
114	0x3e0e4c72	0.13896349
115	0xbea39ba0	-0.3195467
116	0xbe07bbbe	-0.13255212
117	0xbead1d12	-0.3381124
118	0x3e820bc7	0.2539961
119	0xbc00b14c	-0.007854771
120	0x3ec8d0b5	0.3922173
121	0xbe6b8817	-0.23001133
122	0x3ea3059e	0.31840223
123	0xbdaeac30	-0.08528936
124	0xbe45eeb9	-0.19329347
125	0xbdb6a4c9	-0.08918149
126	0xbe081bed	-0.13291903
127	0xbdeb1280	-0.11478138
128	0xbe83082d	-0.25592175
129	0xbe389871	-0.18026902
130	0xbe441663	-0.19149165
131	0x3ec4e179	0.38453272
132	0xbeaf261b	-0.3420876
133	0x3e73e30a	0.23817077
134	0xbeeae2d2	-0.45876175
135	0xbe5f7181	-0.21820642
136	0x3ba0d45e	0.0049081286
137	0xbe4a6f59	-0.19769038
138	0xbcd77d5a	-0.02630489
139	0xbde2252a	-0.11042245
140	0x3da6a871	0.081375964
141	0x3ca0cb53	0.019628203
142	0x3d7b78a3	0.061394345
143	0xbe25fa7d	-0.16208835
144	0xbe6a59af	-0.22885774
145	0xbd336880	-0.04380083
146	0xbe04c55c	-0.12965912
147	0x3e8744b5	0.26419607
148	0xbe4e69d1	-0.20157553
149	0xbdc9da01	-0.09856034
150	0xbda6132e	-0.08109127
151	0xbd99dc06	-0.07512669
152	0xbca37c61	-0.01995677
153	0xbeb829dc	-0.35969436
154	0xbe03fd54	-0.12889606
155	0xbe69c901	-0.22830583
156	0x3e52642a	0.20546022
157	0x3e4ca9be	0.19986627
158	0x3dc3472f	0.095350616
159	0xbe321e91	-0.17394473
160	0x3c4faa8b	0.012674938
161	0xbe20dca1	-0.15709163
162	0xbe34e0ff	-0.17663954
163	0x3e900da2	0.281354
164	0x3e0262fc	0.12733072
165	0xbd641c69	-0.055691157
166	0xbe3c3637	-0.18380056
167	0x3ea29d2b	0.31760535
168	0xbd96c177	-0.07361119
169	0x3e4accbd	0.19804664
170	0x3db33bd3	0.08751645
171	0x3d96d83c	0.07365462
172	0xbea79f83	-0.32738885
173	0x3e48daa8	0.1961466
174	0xbe47d41f	-0.19514512
175	0x3eea0678	0.4570806
176	0x3e172c29	0.1476294
177	0xbd3bfd21	-0.0458957
178	0x3e809f22	0.2512141
179	0x3e481cec	0.19542283
180	0xbe52dd61	-0.20592262
181	0x3f06d58d	0.526696
182	0xbdc73e19	-0.09728641
183	0x3df5ae91	0.119961865
184	0x3c823421	0.015893998
185	0x3e8bc36b	0.2729753
186	0xbdd4d506	-0.103921935
187	0x3e122102	0.14270404
188	0x3e58928f	0.21149658
189	0x3e10958d	0.14119549
190	0xbd548e9a	-0.051893808
191	0x3c885ba0	0.016645253
192	0x3d47e140	0.0487988
193	0xbe3e5e91	-0.18590762
194	0xbda7cb5b	-0.08193084
195	0xbc6779bf	-0.014128148
196	0x3e1acbe1	0.15116836
197	0x3dfec8b2	0.12440623
198	0xbe254d63	-0.16142802
199	0x3bfc305e	0.0076961955
200	0x3d277639	0.04088423
201	0xbe59640c	-0.21229571
202	0xbe0a0787	-0.13479434
203	0x3d705f9d	0.058684934
204	0xbd7122e7	-0.058871176
205	0xbeb552a3	-0.3541461
206	0xb857e9a7	-5.14776e-05
207	0x3e2465e2	0.1605449
208	0x3e4d60b1	0.20056416
209	0x3ecdfc60	0.4023161
210	0x3df180a5	0.11792115
211	0x3e480672	0.19533709
212	0xbdf1cbbc	-0.118064374
213	0x3edacac6	0.4273283
214	0x3e5a4689	0.2131597
215	0xbe209818	-0.15683019

b1 f4 [8]
0	0xbd2226aa	-0.039587654
1	0xbccb1ded	-0.024794543
2	0xbd16302e	-0.03666704
3	0xbda44f0a	-0.08022888
4	0xbdb04be6	-0.086082265
5	0xbd2f041e	-0.042728536
6	0xbd88cdc8	-0.06679875
7	0xbdad713e	-0.08468865

W2 f4 [16, 8, 3, 3]
0	0xbdef9829	-0.11698944
1	0xbe88cd7c	-0.26719272
2	0x3cf9195b	0.030407598
3	0xbe9692d2	-0.2940889
4	0x3e088090	0.13330293
5	0x3cd5b07b	0.026085129
6	0xbde35373	-0.11099901
7	0xbeb5549f	-0.35416123
8	0x3cf25cdf	0.0295853
9	0x3d9862f7	0.07440751
10	0xbeab3b75	-0.334438
11	0xbe057b62	-0.13035348
12	0x3b46b024	0.003031739
13	0xbd73736f	-0.059436258
14	0xbe5ce13a	-0.21570292
15	0xbe1d19a1	-0.15341808
16	0xbe52e093	-0.20593481
17	0x3e898624	0.26860154
18	0xbe7bc118	-0.24585378
19	0x3e776743	0.24160485
20	0x3bdaacd2	0.006673434
21	0xbe158323	-0.14600806
22	0xba613bde	-0.000859199
23	0xbdbb3f56	-0.0914294
24	0xbd8b285e	-0.06794809
25	0xbe42a168	-0.19006884
26	0x3e28d5b0	0.16487765
27	0xbe4d63e8	-0.20057642
28	0x3c747158	0.014919601
29	0x3de3b35e	0.11118196
30	0x3e8dfe7b	0.27733216
31	0xbd8d60ce	-0.0690323
32	0xbe093852	-0.1340039
33	0xbe705a0b	-0.23471849
34	0x3ee7125b	0.45131192
35	0xbe061266	-0.13092956
36	0xbe39f595	-0.18160088
37	0xbd98d7b5	-0.07463018
38	0x3e9ea790	0.30987215
39	0x3e975c8d	0.29562798
40	0xbe538d4a	-0.20659366
41	0xbd7b4789	-0.061347518
42	0xbe01bce4	-0.12669712
43	0xbe385108	-0.17999661
44	0x3eb024f6	0.344032
45	0xbe07bb8d	-0.13255139
46	0xbe19ccc4	-0.15019518
47	0xbd4aedaf	-0.04954308
48	0xbeedf5a7	-0.4647648
49	0xbea86752	-0.32891327
50	0x3e84d4f0	0.25943708
51	0xbdccd57a	-0.10001655
52	0xbf05b3b4	-0.5222733
53	0x3eb9f413	0.36319026
54	0x3da066a2	0.07832076
55	0xbef1a6f4	-0.47197688
56	0xbe8a61bf	-0.270277
57	0xbe03b329	-0.12861313
58	0x3e085024	0.13311821
59	0xbde45966	-0.11149864
60	0xbe572347	-0.21009551
61	0x3c2956c3	0.010335627
62	0x3c047e4d	0.008086753
63	0x3a0a4ea4	0.00052760006
64	0x3ea9c214	0.33155882
65	0xbea81d7c	-0.32834995
66	0xbd946d6f	-0.07247435
67	0xbdaa2113	-0.0830709
68	0xbbb47263	-0.0055068
69	0xbda2ebc0	-0.07955122
70	0xbe8f3fb3	-0.27978286
71	0x3dd371d5	0.10324446
72	0xbdac4478	-0.08411497
73	0x3da91a2f	0.08256947
74	0xbeb2ee96	-0.34947652
75	0xbe560afb	-0.20902626
76	0x3e2b2f57	0.16717277
77	0xbeda400d	-0.42626992
78	0xbd0e155f	-0.03468835
79	0xbe0c2ebb	-0.13689701
80	0xbe86d250	-0.2633233
81	0x3d1009dd	0.035165656
82	0x3b58caa1	0.003307976
83	0x3e1858be	0.14877602
84	0x3e18cf4b	0.14922826
85	0x3d3a0c1f	0.045421716
86	0xbdb9ae20	-0.09066415
87	0x3caef3e3	0.021356529
88	0xbc79768a	-0.015226016
89	0x3e30f4ad	0.17280836
90	0xbd35e584	-0.044408336
91	0xbdf40f08	-0.119169295
92	0x3dccda2b	0.1000255
93	0xbd472c5f	-0.0486263
94	0x3eb3abd7	0.3509204
95	0xbe38eea3	-0.18059783
96	0xbe8256ea	-0.25456935
97	0x3ccbe28a	0.024888296
98	0xbe23c888	-0.15994465
99	0xbd874955	-0.06605784
100	0x3d2c175f	0.042014476
101	0xbda6404c	-0.081177324
102	0x3aee2b4e	0.0018170865
103	0xbe6bacb3	-0.23015098
104	0xbe0c2c7c	-0.13688844
105	0xbd8e8e40	-0.06960726
106	0x3daa7b16	0.08324258
107	0xbe0efdcb	-0.13964002
108	0xbe3c0a43	-0.1836329
109	0xbe1c0246	-0.15235242
110	0xbe9c3ed2	-0.30516678
111	0xbd7a7e6a	-0.061155714
112	0xbe3f44f0	-0.18678641
113	0xbde30163	-0.11084249
114	0x3ea4306c	0.32068193
115	0xbe7b8d30	-0.24565578
116	0x3e270cfd	0.16313548
117	0xbeb6a8e4	-0.35675728
118	0xbc8eb4e9	-0.017420249
119	0x3d410c04	0.0471306
120	0x3dbbe294	0.09174076
121	0xbe401ce3	-0.1876102
122	0x3c92a949	0.017902987
123	0x3eb0a78e	0.34502834
124	0xbb214d49	-0.0024612716
125	0xbc7780fc	-0.015106436
126	0x3eb739b6	0.35786217
127	0xbd62ad7b	-0.055341225
128	0x3dd5cb8c	0.10439214
129	0x3e83b921	0.2572718
130	0xbe5984ea	-0.21242109
131	0x3e8a1f22	0.26976877
132	0xbe9d7a0a	-0.3075717
133	0x3dfd5d41	0.123713024
134	0x3af5d813	0.0018756412
135	0xbe03dfc5	-0.1287833
136	0x3e56df12	0.20983532
137	0x3e04e19f	0.12976693
138	0xbe5e50d1	-0.21710517
139	0x3e79daa2	0.24399808
140	0xbe8585a6	-0.26078528
141	0x3e7ad2db	0.24494497
142	0x3ed5a66f	0.4172854
143	0x3e1036d5	0.14083417
144	0x3e34f86f	0.17672895
145	0xbe94e8a7	-0.2908375
146	0xbe3607a8	-0.17776358
147	0xbdc51702	-0.09623529
148	0xbe596112	-0.21228436
149	0x3e0d75ef	0.1381452
150	0xbd78f9e3	-0.060785186
151	0xbed0fb6f	-0.4081683
152	0xbe5449eb	-0.20731322
153	0xbe5f5324	-0.2180906
154	0xbe9befff	-0.3045654
155	0xbd7f9ab2	-0.06240339
156	0x3bd6dc83	0.0065570488
157	0xbdcff870	-0.101548076
158	0xbe000969	-0.1250359
159	0xbe2bee2b	-0.16790073
160	0xbe6bcb62	-0.23026803
161	0xbd8cca84	-0.06874564
162	0xbef64c2e	-0.48104995
163	0x3eaa4e49	0.33262852
164	0xbe2ff967	-0.17184983
165	0xbd7c0b69	-0.06153432
166	0x3dc25c23	0.0949023
167	0xbcda4dcd	-0.026648426
168	0x3d5a4522	0.053288586
169	0xbde8d9c3	-0.1136966
170	0xbeb57928	-0.35443997
171	0x3e1d9e22	0.15392354
172	0xbe0e06b8	-0.1386975
173	0x3dce2895	0.10066334
174	0x3dbbf168	0.09176904
175	0xbeb8cef3	-0.3609539
176	0x3eea9268	0.45814824
177	0xbe2a5759	-0.16634883
178	0xbdc2a6cd	-0.09504471
179	0x3d91bfd2	0.07116665
180	0xbd9ccaa2	-0.07655837
181	0xbc9a1373	-0.018808102
182	0x3e1d6b18	0.15372884
183	0xbebb88b6	-0.3662774
184	0xbe46cd30	-0.1941421
185	0xbda625d8	-0.08112687
186	0xbe3582a5	-0.17725618
187	0xbd09a257	-0.033602085
188	0xbdbdf235	-0.09274713
189	0xbdb746ea	-0.08949073
190	0xbe1d57d4	-0.15365535
191	0x3d3bfc88	0.04589513
192	0x3e02f05c	0.12787002
193	0xbe9759d7	-0.2956073
194	0x3db1057a	0.08643623
195	0xbe552383	-0.20814328
196	0xbe46a3a7	-0.19398366
197	0x3c359676	0.011083236
198	0x3e0b7b0b	0.13621156
199	0x3d287966	0.0411314
200	0x3ad82591	0.0016490688
201	0x3e6ab13a	0.22919169
202	0xbe4d0c8d	-0.20024319
203	0x3df01e12	0.117244855
204	0xbced808f	-0.028991966
205	0xbda86685	-0.08222679
206	0xbe9ee5b4	-0.31034625
207	0xbe4ec3a8	-0.20191824
208	0xbd12b5c4	-0.035817876
209	0x3e21280e	0.15737936
210	0xbe112f66	-0.14178237
211	0x3cd574e9	0.026056724
212	0xbe6108e9	-0.21976055
213	0xbeda5494	-0.42642653
214	0xbec5069c	-0.38481605
215	0xbe2883ea	-0.16456571
216	0x3e8b58e2	0.2721625
217	0x3e0804f2	0.13283136
218	0x3db2a404	0.0872269
219	0xbdd54c18	-0.10414904
220	0xbda35261	-0.07974697
221	0xbdcddda2	-0.10052039
222	0xbe5344df	-0.20631741
223	0xbc821446	-0.015878808
224	0x3e305439	0.17219628
225	0xbda7dea6	-0.08196764
226	0x3da4d52d	0.080484726
227	0xbd30a011	-0.0431214
228	0xbdacc861	-0.08436657
229	0x3d9d0c1a	0.07668324
230	0xbea70141	-0.32618144
231	0xbec33d1d	-0.38132563
232	0xbea9c30f	-0.3315663
233	0xbe3cd0f8	-0.1843909
234	0xbe1030b8	-0.14081085
235	0xbe833050	-0.25622797
236	0xbeb45149	-0.35218266
237	0x3e4b6b73	0.19865207
238	0x3e073019	0.13201942
239	0xbc3a652a	-0.011376658
240	0x3df703d6	0.120612785
241	0x3e9578e5	0.29193798
242	0xbd532397	-0.051547613
243	0x3e6c5b90	0.23081803
244	0xbe4a4027	-0.19751035
245	0x3e23ffc9	0.16015543
246	0x3e2ec586	0.17067537
247	0x3dd9428f	0.10608398
248	0xbe72a6a2	-0.23696378
249	0xbd2973b6	-0.041370116
250	0xbdb0d83f	-0.08634996
251	0xbe84afed	-0.2591547
252	0xbe0cc59e	-0.1374726
253	0xbd24b029	-0.040207062
254	0xbed30421	-0.41214088
255	0x3cf6f0c2	0.0301441

b2 f4 [16]
0	0xbe0a9d82	-0.13536647
1	0xbc0588ac	-0.008150261
2	0xbdf5f0e2	-0.120088354
3	0xbaab118d	-0.0013051495
4	0xbd3d44b6	-0.046208106
5	0xbc86e86f	-0.016468255
6	0xbd91a629	-0.07111771
7	0xbc4c6e6a	-0.012477497
8	0xbad9dc6c	-0.0016621477
9	0xbe07faeb	-0.13279311
10	0xbd49cbb2	-0.049266525
11	0x3d48e383	0.049045097
12	0xbd698619	-0.05701265
13	0xbd9eee8d	-0.07760344
14	0xbdfb50c4	-0.12271264
15	0xbbb63492	-0.005560466

W3 f4 [32, 16, 3, 3]
0	0x3eecbe90	0.46239138
1	0xbe5e279f	-0.21694802
2	0xbe15f41f	-0.14643906
3	0xbcaface7	-0.021444751
4	0xbd800c2c	-0.062523216
5	0xbdf72241	-0.1206708
6	0x3df2ac3c	0.11849257
7	0x3d97f591	0.07419885
8	0xbe699137	-0.22809301
9	0xbb4a7fa6	-0.0030898838
10	0x3e631eab	0.22179668
11	0xbd2105a1	-0.03931201
12	0xbdcd437e	-0.10022639
13	0xbcfcb9b8	-0.030850276
14	0x3ecb861d	0.39750758
15	0xbebceed6	-0.36900967
16	0xbd76376f	-0.06011146
17	0x3ca1faae	0.019772854
18	0xbe8c18cb	-0.27362666
19	0x3da26f76	0.07931416
20	0x3e1bd6b0	0.15218616
21	0x3a1b4a89	0.00059238874
22	0xbeb64c8e	-0.35605282
23	0x3e14ee14	0.14543945
24	0x3e46959d	0.1939301
25	0xbea8022c	-0.32814157
26	0x3da17641	0.07883883
27	0xbe5ac99b	-0.21365969
28	0x3e582a94	0.21109992
29	0xbdd83748	-0.10557419
30	0xbe936697	-0.28789207
31	0x3ec657ff	0.3873901
32	0x3e548129	0.20752396
33	0xbdc49ea7	-0.09600573
34	0x3d01bbb5	0.031673152
35	0x3ee9bb9f	0.45650956
36	0x3cb3af83	0.021934276
37	0xbe4b940b	-0.19880693
38	0xbe483ad1	-0.19553687
39	0xbdb30586	-0.08741288
40	0xbde98662	-0.114025846
41	0x3e5a4871	0.21316697
42	0x3db008d9	0.085954376
43	0x3dcc006c	0.09961018
44	0x3ea3ef7b	0.32018647
45	0xbe0da4d5	-0.1383241
46	0x3de6c1a4	0.11267403
47	0xbd824b62	-0.063620344
48	0xbe06f7c1	-0.13180448
49	0x3e155cb7	0.14586149
50	0x3e27c91f	0.16385315
51	0xbdeb7a8d	-0.11497984
52	0xbea2fe5a	-0.3183468
53	0x3ea68cd2	0.32529312
54	0x3d853593	0.06504359
55	0x3e7a4de0	0.2444377
56	0x3ed0e233	0.40797576
57	0xbe3a1bff	-0.18174742
58	0x3e7c6fd4	0.24652034
59	0xbde16b1b	-0.11006757
60	0x3ea507ae	0.32232422
61	0x3eff5a02	0.49873358
62	0x3e143cd9	0.14476337
63	0x3e39240b	0.18080156
64	0xbe8fc056	-0.28076428
65	0xbe4679a4	-0.1938234
66	0xbf557461	-0.83380705
67	0x3e176c77	0.1478747
68	0x3d165bf5	0.03670879
69	0xbe33ce0a	-0.17559066
70	0x3d2e87ae	0.042609863
71	0xbd9ffd50	-0.078119874
72	0xbe2b107f	-0.16705512
73	0x3e268493	0.1626151
74	0xbecdfda5	-0.40232578
75	0xbd91422b	-0.07092699
76	0x3e42c0cc	0.19018859
77	0x3e4aac56	0.19792303
78	0xbe8bef2a	-0.27330905
79	0xbd90eee8	-0.07076818
80	0x3efa8d69	0.48936012
81	0xbe3a07c6	-0.18167028
82	0xbd40cffd	-0.047073353
83	0x3eaeb3e9	0.34121636
84	0xbe9a40de	-0.30127615
85	0x3d8cf763	0.06883123
86	0x3e35fea9	0.17772926
87	0xbeb26a56	-0.34846753
88	0x3e32d93c	0.17465681
89	0xbf0633fc	-0.5242307
90	0x3ebaad3b	0.3646029
91	0xbe8bd9ac	-0.27314508
92	0xbd879238	-0.06619686
93	0xbe38f405	-0.18061836
94	0xbd8f8a3f	-0.0700879
95	0xbe55734a	-0.2084476
96	0x3d9b698f	0.07588493
97	0x3ebe33f3	0.3714901
98	0xbeb6e05e	-0.35718054
99	0xbf04fe9e	-0.51951015
100	0x3e774f6b	0.2415139
101	0x3e33cfda	0.17559758
102	0x3dd06e28	0.10177261
103	0x3e010583	0.12599759
104	0x3e9dd6fe	0.3082809
105	0xbebabd24	-0.36472428
106	0x3d8767bb	0.06611582
107	0xbec58b8c	-0.38583028
108	0x3ded7d8f	0.11596214
109	0xbd39db77	-0.045375314
110	0xbbeb358e	-0.007178015
111	0x3dcd8a22	0.10036112
112	0xbd8ca610	-0.068676114
113	0x3e44e2bb	0.19227116
114	0x3b7588e1	0.003746562
115	0x3ee270b1	0.44226602
116	0x3e2e1249	0.16999163
117	0xbdf61cd7	-0.120172195
118	0xbd90374a	-0.070417956
119	0xbe60f380	-0.21967888
120	0xbd14982d	-0.03627794
121	0x3ddee552	0.10883583
122	0x3edc6035	0.4304215
123	0x3e322305	0.17396171
124	0x3eed1d5b	0.4631146
125	0x3e5b0dfc	0.21392053
126	0x3e830dc9	0.25596455
127	0xbd67e063	-0.056610476
128	0x3e2975d7	0.16548859
129	0x3e21d971	0.15805604
130	0x3dd440a9	0.103638954
131	0x3e86790a	0.2626422
132	0x3ec179e2	0.37788302
133	0xbe05a1c8	-0.13049996
134	0x3e0b60f0	0.13611197
135	0xbefd1273	-0.49428138
136	0xbeab6a81	-0.33479694
137	0x3e89d9cc	0.26923978
138	0x3e214451	0.15748717
139	0xbe4e2f6b	-0.20135276
140	0xbe9fb69d	-0.3119401
141	0x3deeeb1c	0.11665937
142	0x3e931d8b	0.28733477
143	0x3e6f450b	0.23366182
144	0xbd0931cc	-0.033494756
145	0x3e288c56	0.16459784
146	0xbf12111b	-0.5705735
147	0xbdce8239	-0.10083432
148	0x3e7838db	0.24240439
149	0x3db74ecf	0.089505784
150	0xbcdd9715	-0.02704958
151	0x3e940d8c	0.28916585
152	0xbe2649a1	-0.16239025
153	0xbdb4685a	-0.08808966
154	0x3c78d7b8	0.01518815
155	0xbe176166	-0.14783248
156	0x3ebe75cb	0.37199244
157	0xbdb55f33	-0.088560484
158	0x3ebc5556	0.36783856
159	0xbe814e92	-0.25255257
160	0xbdc1205e	-0.09430002
161	0xbe05b898	-0.13058698
162	0xbe28a824	-0.1647039
163	0x3e869991	0.26289037
164	0xbdd4abb5	-0.10384313
165	0x3eeb2394	0.4592558
166	0x3da67b94	0.081290394
167	0x3e98bbd4	0.298308
168	0xbdc19654	-0.09452501
169	0x3e41defc	0.18932718
170	0x3e25b851	0.16183592
171	0x3eaa17a0	0.3322115
172	0x3d959393	0.07303538
173	0xbddc28ef	-0.10749995
174	0xbdfb5479	-0.12271971
175	0xbde4d7fc	-0.11174008
176	0xbdad862f	-0.08472859
177	0x3eb7112b	0.35755286
178	0xbe2c894c	-0.1684925
179	0xbe5a1a80	-0.21299171
180	0xb8eb7479	-0.00011227368
181	0xbe1d224d	-0.15345116
182	0xbed245fd	-0.41069022
183	0x3e2b9a4d	0.1675808
184	0xbe63174e	-0.22176859
185	0xbe69d6c4	-0.22835833
186	0xbd88a1f4	-0.06671515
187	0xbd4356d0	-0.047690213
188	0xbe34d0d4	-0.17657787
189	0x3d2c13e3	0.042011153
190	0xbe2e4265	-0.17017515
191	0xbd75eb43	-0.060038816
192	0xbf0f6509	-0.5601354
193	0x3dd8234f	0.105536096
194	0x3e00ebe5	0.12589987
195	0xbe322115	-0.17395432
196	0x3d8affb7	0.06787055
197	0x3eea6722	0.4578181
198	0x3e442d02	0.19157794
199	0xbc4ab46d	-0.012372118
200	0xbd38e5f4	-0.045141175
201	0x3ebda72f	0.37041613
202	0xbdc11c02	-0.0942917
203	0xbe5e7397	-0.21723782
204	0x3e068f31	0.1314056
205	0xbe80bfe3	-0.25146398
206	0x3dca83a8	0.09888393
207	0x3df25a5c	0.11833641
208	0xbcfa1644	-0.030528195
209	0x3d4a00e2	0.04931725
210	0xbe373519	-0.17891349
211	0x3d88ca1c	0.06679174
212	0xbdaec033	-0.08532753
213	0xbdea7652	-0.11448349
214	0xbe40f4ce	-0.18843386
215	0x3e0b473a	0.1360139
216	0x3d1b7272	0.03795094
217	0xbe7c24d7	-0.24623428
218	0x3e272e09	0.16326155
219	0x3d8011e5	0.06253413
220	0xbe7c20ab	-0.24621837
221	0x3e043b34	0.12913209
222	0x3d40adea	0.047040857
223	0xbd99463f	-0.074841015
224	0x3ddb48b5	0.10707227
225	0xbe61d467	-0.22053681
226	0xbdaab8b4	-0.083360106
227	0x3cf976a9	0.03045209
228	0x3f09e51e	0.5386523
229	0x3d898493	0.0671474
230	0x3e536af9	0.20646276
231	0x3d207caa	0.03918139
232	0x3e040980	0.12894249
233	0xbe28bdae	-0.16478607
234	0x3d8048f5	0.062639154
235	0xbd26fa96	-0.04076632
236	0x3ce49e5e	0.027907547
237	0xbdf6d92e	-0.120531425
238	0xbdfbf6e9	-0.12302954
239	0x3e68763e	0.22701356
240	0x3e304102	0.17212299
241	0x3eacb076	0.3372838
242	0xbe4aaf1c	-0.19793361
243	0x3d80dd00	0.062921524
244	0x3c17e002	0.009269716
245	0xbd75dbe5	-0.06002416
246	0x3dff03c0	0.12451887
247	0x3e718300	0.23585129
248	0x3e1cf8c3	0.1532927
249	0xbd7969ef	-0.06089204
250	0x3c6e806c	0.014556985
251	0xbe6391f1	-0.22223641
252	0xbd3fbf75	-0.046813447
253	0x3cd76ca5	0.026296923
254	0x3adc06db	0.0016786711
255	0x3e469e2f	0.1939628

b3 f4 [32]
0	0xbdb5925b	-0.08865806
1	0xbcd56763	-0.026050275
2	0xbcb04640	-0.021517873
3	0xbd9d5289	-0.07681758
4	0xbd916959	-0.071001716
5	0x3da1d7e9	0.0790251
6	0xbda65d1a	-0.081232265
7	0xbc889ee3	-0.016677326
8	0xbc9a94a5	-0.018869707
9	0xbd933cf7	-0.071893625
10	0xbdd1e694	-0.102490574
11	0xbd66db65	-0.056361575
12	0x3dabd4f1	0.08390225
13	0xbd3ef5f0	-0.046621263
14	0x3d13767f	0.03600168
15	0x3c8f85c1	0.017519834
16	0xbe0901b6	-0.13379559
17	0x3e20050c	0.15626925
18	0xbe38113a	-0.17975321
19	0xbdc50229	-0.09619553
20	0xbba3b22b	-0.0049956045
21	0xbdbb0df0	-0.09133518
22	0x3cdeee0a	0.027213115
23	0xbda402b7	-0.0800833
24	0xbc4eaea6	-0.012614882
25	0xbdae4906	-0.08510022
26	0xbd6559af	-0.055993732
27	0x3e0879ce	0.13327715
28	0x3c417681	0.011808039
29	0xbda4b0b9	-0.0804152
30	0xbd02daed	-0.031947065
31	0xbd1be1f9	-0.0380573

W4 f4 [64, 32, 3, 3]
0	0x3da7995d	0.081835486
1	0xbebca438	-0.3684404
2	0xbe610e4c	-0.2197811
3	0xbc1813de	-0.00928208
4	0xbda2caff	-0.07948875
5	0x3e1462d0	0.14490819
6	0xbd58c695	-0.052923758
7	0x3e11cf6e	0.14239284
8	0x3d727501	0.059193615
9	0xbc9cb754	-0.019130386
10	0xbe696b97	-0.22794949
11	0x3ddcbfac	0.10778746
12	0xbd879270	-0.066197276
13	0x3e1f9da3	0.15587477
14	0xbe1a3708	-0.15060055
15	0x3e05b70f	0.13058113
16	0x3e3f4a95	0.18680795
17	0x3e79400a	0.24340835
18	0xbd0872fc	-0.033312783
19	0xbe911c92	-0.2834211
20	0x3ed0f2bb	0.4081019
21	0x3d2b55db	0.041829925
22	0x3e5f0c4a	0.21782032
23	0x3dcfd354	0.101477295
24	0xbebb7d2f	-0.36618945
25	0x3daffd20	0.08593202
26	0xbf2c484b	-0.6729781
27	0x3ee9ba17	0.45649788
28	0x3e7a09cb	0.24417798
29	0x3d585735	0.052817542
30	0x3cf86761	0.030322732
31	0x3e403de4	0.1877361
32	0x3cf95844	0.030437596
33	0xbc84119f	-0.016121684
34	0x3ece3fb0	0.40282965
35	0x3d29af2f	0.041426834
36	0x3d228cfb	0.03968523
37	0xbed2226d	-0.4104189
38	0xbe24895b	-0.16068022
39	0xbd48792e	-0.04894369
40	0xbc9c3a07	-0.019070638
41	0x3e632786	0.22183046
42	0xbe0386ad	-0.12844343
43	0xbe6e18fd	-0.2325172
44	0xbe94649a	-0.28983003
45	0x3dabf6c1	0.08396674
46	0xbe830490	-0.25589418
47	0xbea49958	-0.32148242
48	0x3e6fddfc	0.23424524
49	0x3ea871d3	0.3289934
50	0x3e3bf46d	0.1835496
51	0x3e48ee13	0.19622068
52	0x3ed302ab	0.41212973
53	0xbf3aff8b	-0.7304618
54	0x3da9ae4b	0.08285197
55	0x3b353736	0.0027651316
56	0xbe21de12	-0.1580737
57	0xbe956884	-0.29181302
58	0xbd2a7799	-0.041617963
59	0x3f306982	0.6891099
60	0x3d660642	0.05615831
61	0x3e39aa6b	0.18131416
62	0xbe3d2e70	-0.18474746
63	0x3e501fa5	0.20324571
64	0x3ed12397	0.40847465
65	0x3e109800	0.14120483
66	0xbe1f9867	-0.1558548
67	0xbeac169f	-0.3361101
68	0x3e14942a	0.14509645
69	0x3d6594a7	0.05604997
70	0xbe9ecb85	-0.31014648
71	0xbe12d598	-0.14339292
72	0x3d67f764	0.056632414
73	0xbe39ec07	-0.18156444
74	0xbde5f873	-0.112290286
75	0x3d29c289	0.04144529
76	0x3e519021	0.20465137
77	0x3e8a3424	0.26992905
78	0x3d46a453	0.048496556
79	0x3eeefb07	0.46675894
80	0x3e591f07	0.21203242
81	0x3e6df06f	0.2323625
82	0x3e1ff6ef	0.15621541
83	0x3dd29f31	0.102842696
84	0x3dbab133	0.09115829
85	0x3e96216a	0.29322368
86	0x3de96ee2	0.11398102
87	0x3e21b34c	0.15791053
88	0xbbecd207	-0.0072271856
89	0x3dac5a82	0.084157005
90	0xbdffb870	-0.124863505
91	0x3d66919f	0.05629122
92	0xbdaaf362	-0.08347203
93	0x3e138804	0.14407355
94	0x3e5d1c85	0.2159291
95	0x3e7ba06c	0.24572915
96	0xbe87b7f4	-0.26507533
97	0x3e82099b	0.25397953
98	0xbd59c428	-0.053165585
99	0xbc4a0428	-0.0123300925
100	0x3d6812b7	0.056658473
101	0xb7ed76ed	-2.830798e-05
102	0x3e9057b9	0.28191927
103	0x3dfda787	0.12385469
104	0xbd520188	-0.05127099
105	0x38fac383	0.00011957346
106	0x3d22b647	0.039724614
107	0x3de59deb	0.11211761
108	0x3d86a9d4	0.06575361
109	0x3eb27eb6	0.34862298
110	0x3ddc4769	0.10755808
111	0x3e6fb787	0.23409854
112	0x3ea86d70	0.32895994
113	0x3d99f02e	0.07516514
114	0x3cccf9c4	0.025021441
115	0x3df07d1f	0.11742615
116	0x3ec95eeb	0.3933023
117	0x3ed83733	0.42229614
118	0x3e254208	0.1613847
119	0x3e9456ff	0.28972623
120	0xbda13c90	-0.078728795
121	0xbe3493b2	-0.17634466
122	0x3dcc218a	0.099673346
123	0x3e156629	0.14589752
124	0xbc55ae65	-0.013042067
125	0x3e8b132e	0.2716307
126	0x3e39afa3	0.18133406
127	0xbe69c74d	-0.22829933
128	0xbe994ebe	-0.29942888
129	0x3dbd4bf6	0.09243004
130	0x3e1b3dcc	0.15160292
131	0x3da4cfa5	0.080474176
132	0x3e3cc7cc	0.18435591
133	0x3ec4c846	0.38434047
134	0xbe0ea8ab	-0.13931529
135	0x3e9f118b	0.31068072
136	0x3da834f2	0.082132235
137	0x3e1c2b2b	0.15250842
138	0x3e957d88	0.29197335
139	0xbd6a1a35	-0.0571539
140	0xbe732fa5	-0.23748644
141	0x3e7dfc4d	0.24803276
142	0xbdef502e	-0.11685215
143	0x3e99e0da	0.3005436
144	0x3f09691e	0.5367602
145	0xbed8dbbb	-0.4235514
146	0xbe1823a6	-0.14857349
147	0xbeb75469	-0.35806587
148	0x3ebf2844	0.37335408
149	0xbd22c458	-0.03973803
150	0xbdd1e336	-0.10248415
151	0x3e570af5	0.21000274
152	0xbf0208a2	-0.5079442
153	0x3e6fc767	0.2341591
154	0x3d04b19f	0.032395955
155	0xbe629019	-0.22125281
156	0x3e9fe30b	0.31227908
157	0xbe0a8bcf	-0.13529895
158	0x3ead9a27	0.3390667
159	0xbdc01918	-0.09379786
160	0xbdf0ba05	-0.117542304
161	0x3ec60b17	0.38680336
162	0xbe63942f	-0.22224496
163	0x3c26f052	0.010189133
164	0xbe8ce912	-0.2752157
165	0xbe04e7cb	-0.12979047
166	0xbdd04bbe	-0.10170697
167	0x3e0c993b	0.13730328
168	0xbe40b637	-0.1881951
169	0x3e430751	0.1904576
170	0x3e2d8873	0.16946582
171	0xbde2b8da	-0.11070414
172	0x3de78bee	0.11305986
173	0xbddbc034	-0.10730019
174	0x3e1a1c94	0.15049964
175	0xbe121ec6	-0.14269552
176	0xbc34e783	-0.011041525
177	0xbe9bc2eb	-0.30422148
178	0x3ca4746b	0.020075044
179	0xbc946ff7	-0.018119795
180	0x3c10b117	0.008831284
181	0xbd08ed6f	-0.03342956
182	0xbdc1694b	-0.09443911
183	0x3e8c67e2	0.27423006
184	0xbde57300	-0.11203575
185	0xbebf26ce	-0.37334293
186	0x3d28fa92	0.041254587
187	0xbb0d39e4	-0.0021549398
188	0x3eb58044	0.3544942
189	0xbe5a3485	-0.21309097
190	0xbe860de8	-0.26182485
191	0xbebb1846	-0.36541957
192	0xbe06e574	-0.13173467
193	0xbe2028cc	-0.15640563
194	0xbdf842bb	-0.12122103
195	0x3dd73fa2	0.10510184
196	0x3d037c21	0.0321008
197	0xbcf27f0a	-0.029601593
198	0x3e7f01a6	0.24902973
199	0xbd6ca55f	-0.057774898
200	0x3ca3c835	0.019992927
201	0x3db4ae8d	0.088223554
202	0x3d8b6c06	0.06807713
203	0xbe217907	-0.15768825
204	0x3dff44a1	0.12464262
205	0x3e587864	0.21139675
206	0x3e6f07cd	0.2334282
207	0x3d3fbdb9	0.046811793
208	0x3ec5a52d	0.38602582
209	0xb63024f6	-2.6247558e-06
210	0xbebe442b	-0.37161383
211	0xbcd5f9ee	-0.026120152
212	0xba41b866	-0.0007389843
213	0x3d929165	0.07156638
214	0x3d4c4c08	0.049877197
215	0x3c97417c	0.018463843
216	0xbe948291	-0.29005864
217	0xbe87ab0d	-0.2649769
218	0xbe42cd2d	-0.19023581
219	0xbd846235	-0.06464044
220	0x3eb92589	0.3616145
221	0xbc255e95	-0.010093351
222	0x3df6a2ac	0.12042746
223	0x3ad9422c	0.0016575507
224	0xbd3d8af2	-0.046275087
225	0xbcadb36d	-0.021203721
226	0xbd41ec5f	-0.04734456
227	0xbac4ad1c	-0.0015005204
228	0x3e83be4e	0.25731128
229	0xbe66517c	-0.22492021
230	0x3d3a37b0	0.045463264
231	0x3e00dc29	0.12583984
232	0xbd19b24f	-0.037523564
233	0xbd9bd664	-0.07609251
234	0x3de389ed	0.11110292
235	0xbdad1649	-0.08451516
236	0x3e89d1bf	0.26917836
237	0xbe7df948	-0.24802125
238	0xbd0815db	-0.033223968
239	0x3dcd93a2	0.10037924
240	0x3e49c017	0.19702183
241	0x3e2f828d	0.17139645
242	0xbdab6e85	-0.08370689
243	0x3dc2dd11	0.09514821
244	0xbec7f5be	-0.39054674
245	0x3d7159da	0.05892358
246	0xbc615876	-0.013754001
247	0x3e1f9c81	0.15587045
248	0x3e84e0c3	0.2595273
249	0xbed280bf	-0.4111385
250	0xbdf6c9dc	-0.1205022
251	0xbe9e06d5	-0.30864587
252	0xbe4cfbb6	-0.20017895
253	0x3d6614eb	0.056172293
254	0xbebdb7cd	-0.3705429
255	0xbd5cf0df	-0.05394065

b4 f4 [64]
0	0xbd978532	-0.07398452
1	0xbd43ebb2	-0.0478322
2	0x3db704fb	0.08936497
3	0x3c0bb298	0.008526467
4	0xbdfab9a3	-0.12242439
5	0x3caee5c5	0.021349797
6	0x3d6600eb	0.05615322
7	0x3d0d7e86	0.03454449
8	0xbd6b6030	-0.05746478
9	0xbd8bced9	-0.068265624
10	0xbdaa365e	-0.08311151
11	0x3d64c986	0.05585625
12	0xbdd66f02	-0.10470392
13	0xbd9402d9	-0.07227106
14	0xbd899840	-0.067184925
15	0x3d87bbde	0.0662763
16	0xbe1130da	-0.14178792
17	0xbdb5093d	-0.08839653
18	0x3aa87978	0.0012853583
19	0x3ccb278b	0.024799129
20	0xbbe79d45	-0.0070683085
21	0xbdd3ca04	-0.10341266
22	0xbda75637	-0.08170741
23	0x3d536918	0.051613897
24	0xbdab0ca5	-0.08352021
25	0xbdbd8117	-0.092531376
26	0xbd41e124	-0.04733385
27	0x3c6eb0f5	0.014568557
28	0xbd42fb30	-0.047602832
29	0xbc82b815	-0.015956918
30	0xbdbbdbd1	-0.09172786
31	0xbe435658	-0.19075906
32	0x3d856559	0.06513471
33	0xbd44f73a	-0.048087336
34	0xbd53a5c4	-0.05167176
35	0xbd7c941b	-0.061664682
36	0xbdf93b9e	-0.12169574
37	0x3acd7b7d	0.0015677061
38	0x3e0bb349	0.1364261
39	0x3cc7b571	0.02437851
40	0x3df3bb37	0.11900943
41	0x3d4c6b06	0.049906753
42	0xbd57d7d1	-0.052696053
43	0x3e15d31c	0.14631313
44	0x3e4e85fb	0.20168297
45	0xbd05e367	-0.03268757
46	0xbdc3d7e4	-0.09562662
47	0xbe011061	-0.12603904
48	0xbd451a05	-0.048120517
49	0xbdb29f5c	-0.08721802
50	0xbde06c44	-0.1095815
51	0xbb51d341	-0.0032016786
52	0xbc6c2c1a	-0.0144148115
53	0x3d111c37	0.0354273
54	0xbde40073	-0.11132898
55	0xbd619614	-0.055074766
56	0xbc8ade35	-0.01695166
57	0x3d858266	0.06519012
58	0x3da54363	0.080694936
59	0xbcbf86c3	-0.02337969
60	0x3d59e3c3	0.053195726
61	0xbe0b134d	-0.13581581
62	0xbd87dd09	-0.06633956
63	0xbd57a16c	-0.05264418

W5 f4 [256, 10]
0	0xbd95cea7	-0.073148064
1	0x3e173bb0	0.14768863
2	0x3e63f868	0.22262728
3	0xbd38a826	-0.045082234
4	0xbc99c0a2	-0.018768612
5	0xbe5193d6	-0.20466551
6	0x3db50288	0.088383734
7	0x3e2302c5	0.15919025
8	0xbdab45ab	-0.083628975
9	0x3eaa3f7a	0.33251554
10	0x3d8f9139	0.07010121
11	0xbcbaf51e	-0.02282196
12	0xbe97d41c	-0.29654014
13	0x3cfc41a8	0.030793026
14	0x3e8d11b6	0.27552575
15	0x3e48f74d	0.19625588
16	0x3d2a96f2	0.04164786
17	0x3ea72a78	0.3264959
18	0x3c28db14	0.010306139
19	0x3e7fdc28	0.24986327
20	0x3efc786b	0.49310622
21	0xbe8ba7fc	-0.272766
22	0xbea87c0a	-0.32907134
23	0xbe505bdb	-0.2034754
24	0x3e191afd	0.14951701
25	0xbc09549a	-0.008381987
26	0xbe2248a8	-0.15848029
27	0x3cf5662f	0.029955951
28	0xbd852a2a	-0.06502183
29	0x3e1d152e	0.1534011
30	0x3c2e3858	0.010633551
31	0xbba19010	-0.0049305037
32	0x3e21e826	0.15811214
33	0xbd5d7bde	-0.054073207
34	0xbe52bf8e	-0.20580885
35	0x3d9118d5	0.070848145
36	0xbdd2b039	-0.10287518
37	0xbf020b95	-0.5079892
38	0x3e0d5a0f	0.13803886
39	0x3e3d34b9	0.18477143
40	0xbde2bf2e	-0.11071621
41	0x3d986551	0.074411996
42	0x3e6ad574	0.22932988
43	0xbe7f8214	-0.24951965
44	0x3d36e5b9	0.044652674
45	0x3eb05f16	0.34447545
46	0xbde8ff45	-0.11376814
47	0x3e9e9cf8	0.30979133
48	0x3b6f3570	0.0036500357
49	0x3ebeaf7e	0.37243265
50	0xbd5f03de	-0.054447047
51	0x3dfbf6a8	0.12302905
52	0xbd87cc75	-0.06630794
53	0x3e47160c	0.19442004
54	0xbe1400fd	-0.14453502
55	0xbcb2ed11	-0.021841558
56	0x3e4c7421	0.19966175
57	0x3ea66b0c	0.32503545
58	0xbe84608d	-0.25854912
59	0xbe556e22	-0.20842794
60	0xbd53ba23	-0.051691186
61	0x3e845f87	0.25854132
62	0x3f07055a	0.5274254
63	0xbb92c791	-0.0044793566
64	0x3cfb8d15	0.030706922
65	0xbd901a2f	-0.07036244
66	0xbe58fb71	-0.21189667
67	0x3e3d0b2d	0.18461294
68	0x3e61b934	0.22043306
69	0xbd8941fa	-0.06702037
70	0x3d9c9115	0.0764486
71	0xbe106090	-0.14099336
72	0x3f073e92	0.5282985
73	0xbe06536e	-0.13117763
74	0x3d3515c5	0.044210214
75	0x3e2d6d84	0.16936308
76	0x3da09f92	0.078429356
77	0x3e49096f	0.19632505
78	0xbf06d4c2	-0.5266839
79	0xbd2848e2	-0.04108513
80	0xbe9a3892	-0.30121285
81	0x3d3ba267	0.045809176
82	0x3e002968	0.12515795
83	0x3e0c399c	0.13693851
84	0xbe00b4fd	-0.12569042
85	0x3d38df14	0.04513462
86	0x3dd3efb7	0.10348456
87	0x3e93aeca	0.2884429
88	0x3ce9aee5	0.028525779
89	0xbe5c786a	-0.2153031
90	0xbea5d459	-0.3238857
91	0xbd8badbf	-0.06820249
92	0xbe63c1ac	-0.22241849
93	0x3eb0d93b	0.34540734
94	0x3e54cb12	0.2078059
95	0xbcb28fa3	-0.021797007
96	0x3e43593c	0.19077009
97	0xbec3fcf1	-0.38278916
98	0x3d8aa33f	0.06769418
99	0xbe180a41	-0.14847662
100	0x3d2c3627	0.04204383
101	0x3e1cae9a	0.1530098
102	0x3dc3a100	0.09552193
103	0x3dbd215e	0.0923488
104	0xbe6b564c	-0.22982138
105	0xbe4b4cbd	-0.19853492
106	0x3d9ac255	0.07556597
107	0x3d9f1101	0.07766915
108	0xbe43c746	-0.19118986
109	0x3e3b837e	0.18311879
110	0xba314008	-0.00067615556
111	0xbdcafa92	-0.09911074
112	0xbd8889a7	-0.0666688
113	0xbd3372c7	-0.043810632
114	0x3ec796bd	0.38982192
115	0xbebbc000	-0.36669922
116	0x3ea41cbf	0.32053182
117	0xbdc9dceb	-0.0985659
118	0xbe35599e	-0.17709967
119	0xbcf61dec	-0.030043565
120	0x3ded36f5	0.11582748
121	0x3e3a4c51	0.18193175
122	0x3e031185	0.12799652
123	0xbd8d5ac3	-0.06902077
124	0x3dd12794	0.10212627
125	0xbd68e5b4	-0.056859687
126	0xbe838dc3	-0.25694093
127	0x3dfc11b1	0.12308062
128	0xbd24bccf	-0.040219124
129	0x3d7e6273	0.062105607
130	0xbe430023	-0.19043021
131	0xbeff5f70	-0.498775
132	0x3ea6441a	0.32473832
133	0x3dd634bb	0.10459276
134	0x3c42345c	0.011853304
135	0xbc8f6359	-0.017503427
136	0x3d3a97ac	0.0455548
137	0x3e745738	0.23861396
138	0xbef20476	-0.47269028
139	0x3effedd9	0.4998615
140	0x3e413889	0.18869223
141	0xbdb0573d	-0.086103894
142	0xbd46ffaf	-0.048583683
143	0xbb88c3b5	-0.0041737207
144	0x3ec5192e	0.38495773
145	0x3e1159d0	0.14194417
146	0x3d5ccc74	0.05390592
147	0x3a2e8c4d	0.00066584797
148	0x3d8121e6	0.06305294
149	0x3e8819be	0.2658214
150	0xbd44ee73	-0.048078965
151	0x3e1cf38f	0.15327285
152	0xbec2c598	-0.38041377
153	0x3d1b1023	0.037857186
154	0x3df9ddef	0.122005336
155	0xbdb7e8fb	-0.089799844
156	0x3e1eaf1a	0.15496483
157	0xbd20c342	-0.039248712
158	0xbec5de07	-0.38645956
159	0xbe8f4f58	-0.27990222
160	0x3d7e65fb	0.062108975
161	0xbe55c7d3	-0.20877008
162	0xbb2fff76	-0.0026855147
163	0xbaceda67	-0.0015781642
164	0x3e509d9c	0.20372623
165	0x3ec471b7	0.38368008
166	0xbd5ebc77	-0.054378953
167	0xbe445467	-0.19172822
168	0xbeaf5622	-0.34245402
169	0x3eb8df2a	0.3610776
170	0xbd9faaef	-0.07796275
171	0x3e38d2b0	0.18049121
172	0x3bd346ff	0.0064476724
173	0xbd2ea50a	-0.042637862
174	0xbe252a63	-0.1612945
175	0xbbf1acec	-0.00737535
176	0x3d995c63	0.074883245
177	0x3d726b4f	0.05918437
178	0x3d9de045	0.07708792
179	0x3dd7395b	0.105089866
180	0x3e319052	0.1734021
181	0xbde846d7	-0.11341637
182	0x3cd5d975	0.026104668
183	0x3eb68619	0.35649183
184	0xbe63fb5a	-0.22263852
185	0x3e93993f	0.28827855
186	0xbe032c5d	-0.12809892
187	0xbe44d195	-0.19220574
188	0x3e939ffa	0.2883299
189	0x3de7ee31	0.11324728
190	0x3baf1c7f	0.005343973
191	0xbecf3f6c	-0.40478075
192	0xbc25090a	-0.010072956
193	0x3e197f65	0.14990003
194	0xbd880ff1	-0.066436656
195	0x3e2e470c	0.1701929
196	0xbe144ae3	-0.14481692
197	0xbdb1ce8d	-0.086819746
198	0x3f1cf541	0.6131173
199	0xbd988d51	-0.07448829
200	0x3dc350aa	0.0953687
201	0xbc0fdf5d	-0.008781281
202	0x3e94040b	0.28909335
203	0x39a6abfa	0.0003179012
204	0x3b9466f2	0.0045288736
205	0x3e8580fe	0.26074976
206	0x3dc475e4	0.09592798
207	0x3df52e3b	0.119717084
208	0xbd3308c7	-0.043709543
209	0xbcc45dea	-0.023970563
210	0xbb1297e2	-0.0022368361
211	0xbd53f542	-0.051747568
212	0x3efeb115	0.49744478
213	0x3de667d0	0.112502694
214	0xbde3cc41	-0.11122943
215	0xbe2f1989	-0.17099585
216	0xbe80ce15	-0.25157228
217	0xbc861c1f	-0.016370831
218	0xbdef1b66	-0.11675148
219	0xbd68ffae	-0.05688446
220	0xbdae7f32	-0.08520354
221	0x3cf33cf8	0.029692158
222	0x3ed90937	0.42389843
223	0xbe208761	-0.15676643
224	0x3e42ee40	0.19036198
225	0x3e26bdb4	0.16283303
226	0x3e440ed1	0.19146277
227	0x3ded143c	0.11576125
228	0xbe65cd87	-0.22441684
229	0xbe6a5691	-0.22884585
230	0xbd5c5bcf	-0.053798493
231	0xbe309f67	-0.17248307
232	0xbec0d06e	-0.3765902
233	0x3c424796	0.011857888
234	0xbe81b5c9	-0.25334004
235	0xbead1f05	-0.3381273
236	0x3ecf44b9	0.4048212
237	0xbdd8903c	-0.105743855
238	0x3ec7cab1	0.3902183
239	0x3ed9b4eb	0.42520842
240	0x3d9ce1b3	0.07660236
241	0x3e416a1c	0.18888134
242	0xbc6f50d1	-0.0146066705
243	0xbe274a15	-0.16336854
244	0x3d7c2f27	0.061568405
245	0xbeb12edf	-0.34606072
246	0x3dbaf06c	0.09127888
247	0xbde2775d	-0.11057923
248	0xbdbc6f14	-0.09200874
249	0xbf04c01c	-0.51855636
250	0x3b93284b	0.0044908873
251	0x3da816d2	0.08207478
252	0xbe949b74	-0.2902485
253	0xbe5089b2	-0.20365027
254	0x3e5c8e5f	0.21538685
255	0x3db95f91	0.09051431

b5 f4 [10]
0	0xbd85c750	-0.065321565
1	0xbd943347	-0.07236343
2	0x3d103aec	0.035212442
3	0x3d867717	0.06565683
4	0x3e233fdc	0.15942329
5	0xbda70a27	-0.08156233
6	0x3d8f379d	0.06993029
7	0x3c55ff3a	0.013061339
8	0xbc998d3c	-0.018744104
9	0xbdbb780a	-0.09153755
